…
I0720 12:26:40.764798 31765 net.cpp:51] Initializing net from parameters: 
name: "VGG_ILSVRC_16_layers"
state {
  phase: TRAIN
  level: 0
  stage: ""
}
layer {
  name: "data"
  type: "ImageData"
  top: "data"
  top: "label"
  include {
    phase: TRAIN
  }
  transform_param {
    mirror: true
    crop_size: 224
    mean_file: "/srv/glusterfs/hmahdi/IMDB/models/imagenet_mean.binaryproto"
  }
  image_data_param {
    source: "/srv/glusterfs/hmahdi/IMDB/morph_target/Pre-training_sizes/100/MORPH_matched_100_training_set.txt"
    batch_size: 5
    new_height: 256
    new_width: 256
  }
}
layer {
  name: "conv1_1"
  type: "Convolution"
  bottom: "data"
  top: "conv1_1"
  param {
    lr_mult: 1
    decay_mult: 1
  }
  param {
    lr_mult: 2
    decay_mult: 0
  }
  convolution_param {
    num_output: 64
    pad: 1
    kernel_size: 3
  }
}
layer {
  name: "relu1_1"
  type: "ReLU"
  bottom: "conv1_1"
  top: "conv1_1"
}
layer {
  name: "conv1_2"
  type: "Convolution"
  bottom: "conv1_1"
  top: "conv1_2"
  param {
    lr_mult: 1
    decay_mult: 1
  }
  param {
    lr_mult: 2
    decay_mult: 0
  }
  convolution_param {
    num_output: 64
    pad: 1
    kernel_size: 3
  }
}
layer {
  name: "relu1_2"
  type: "ReLU"
  bottom: "conv1_2"
  top: "conv1_2"
}
layer {
  name: "pool1"
  type: "Pooling"
  bottom: "conv1_2"
  top: "pool1"
  pooling_param {
    pool: MAX
    kernel_size: 2
    stride: 2
  }
}
layer {
  name: "conv2_1"
  type: "Convolution"
  bottom: "pool1"
  top: "conv2_1"
  param {
    lr_mult: 1
    decay_mult: 1
  }
  param {
    lr_mult: 2
    decay_mult: 0
  }
  convolution_param {
    num_output: 128
    pad: 1
    kernel_size: 3
  }
}
layer {
  name: "relu2_1"
  type: "ReLU"
  bottom: "conv2_1"
  top: "conv2_1"
}
layer {
  name: "conv2_2"
  type: "Convolution"
  bottom: "conv2_1"
  top: "conv2_2"
  param {
    lr_mult: 1
    decay_mult: 1
  }
  param {
    lr_mult: 2
    decay_mult: 0
  }
  convolution_param {
    num_output: 128
    pad: 1
    kernel_size: 3
  }
}
layer {
  name: "relu2_2"
  type: "ReLU"
  bottom: "conv2_2"
  top: "conv2_2"
}
layer {
  name: "pool2"
  type: "Pooling"
  bottom: "conv2_2"
  top: "pool2"
  pooling_param {
    pool: MAX
    kernel_size: 2
    stride: 2
  }
}
layer {
  name: "conv3_1"
  type: "Convolution"
  bottom: "pool2"
  top: "conv3_1"
  param {
    lr_mult: 1
    decay_mult: 1
  }
  param {
    lr_mult: 2
    decay_mult: 0
  }
  convolution_param {
    num_output: 256
    pad: 1
    kernel_size: 3
  }
}
layer {
  name: "relu3_1"
  type: "ReLU"
  bottom: "conv3_1"
  top: "conv3_1"
}
layer {
  name: "conv3_2"
  type: "Convolution"
  bottom: "conv3_1"
  top: "conv3_2"
  param {
    lr_mult: 1
    decay_mult: 1
  }
  param {
    lr_mult: 2
    decay_mult: 0
  }
  convolution_param {
    num_output: 256
    pad: 1
    kernel_size: 3
  }
}
layer {
  name: "relu3_2"
  type: "ReLU"
  bottom: "conv3_2"
  top: "conv3_2"
}
layer {
  name: "conv3_3"
  type: "Convolution"
  bottom: "conv3_2"
  top: "conv3_3"
  param {
    lr_mult: 1
    decay_mult: 1
  }
  param {
    lr_mult: 2
    decay_mult: 0
  }
  convolution_param {
    num_output: 256
    pad: 1
    kernel_size: 3
  }
}
layer {
  name: "relu3_3"
  type: "ReLU"
  bottom: "conv3_3"
  top: "conv3_3"
}
layer {
  name: "pool3"
  type: "Pooling"
  bottom: "conv3_3"
  top: "pool3"
  pooling_param {
    pool: MAX
    kernel_size: 2
    stride: 2
  }
}
layer {
  name: "conv4_1"
  type: "Convolution"
  bottom: "pool3"
  top: "conv4_1"
  param {
    lr_mult: 1
    decay_mult: 1
  }
  param {
    lr_mult: 2
    decay_mult: 0
  }
  convolution_param {
    num_output: 512
    pad: 1
    kernel_size: 3
  }
}
layer {
  name: "relu4_1"
  type: "ReLU"
  bottom: "conv4_1"
  top: "conv4_1"
}
layer {
  name: "conv4_2"
  type: "Convolution"
  bottom: "conv4_1"
  top: "conv4_2"
  param {
    lr_mult: 1
    decay_mult: 1
  }
  param {
    lr_mult: 2
    decay_mult: 0
  }
  convolution_param {
    num_output: 512
    pad: 1
    kernel_size: 3
  }
}
layer {
  name: "relu4_2"
  type: "ReLU"
  bottom: "conv4_2"
  top: "conv4_2"
}
layer {
  name: "conv4_3"
  type: "Convolution"
  bottom: "conv4_2"
  top: "conv4_3"
  param {
    lr_mult: 1
    decay_mult: 1
  }
  param {
    lr_mult: 2
    decay_mult: 0
  }
  convolution_param {
    num_output: 512
    pad: 1
    kernel_size: 3
  }
}
layer {
  name: "relu4_3"
  type: "ReLU"
  bottom: "conv4_3"
  top: "conv4_3"
}
layer {
  name: "pool4"
  type: "Pooling"
  bottom: "conv4_3"
  top: "pool4"
  pooling_param {
    pool: MAX
    kernel_size: 2
    stride: 2
  }
}
layer {
  name: "conv5_1"
  type: "Convolution"
  bottom: "pool4"
  top: "conv5_1"
  param {
    lr_mult: 1
    decay_mult: 1
  }
  param {
    lr_mult: 2
    decay_mult: 0
  }
  convolution_param {
    num_output: 512
    pad: 1
    kernel_size: 3
  }
}
layer {
  name: "relu5_1"
  type: "ReLU"
  bottom: "conv5_1"
  top: "conv5_1"
}
layer {
  name: "conv5_2"
  type: "Convolution"
  bottom: "conv5_1"
  top: "conv5_2"
  param {
    lr_mult: 1
    decay_mult: 1
  }
  param {
    lr_mult: 2
    decay_mult: 0
  }
  convolution_param {
    num_output: 512
    pad: 1
    kernel_size: 3
  }
}
layer {
  name: "relu5_2"
  type: "ReLU"
  bottom: "conv5_2"
  top: "conv5_2"
}
layer {
  name: "conv5_3"
  type: "Convolution"
  bottom: "conv5_2"
  top: "conv5_3"
  param {
    lr_mult: 1
    decay_mult: 1
  }
  param {
    lr_mult: 2
    decay_mult: 0
  }
  convolution_param {
    num_output: 512
    pad: 1
    kernel_size: 3
  }
}
layer {
  name: "relu5_3"
  type: "ReLU"
  bottom: "conv5_3"
  top: "conv5_3"
}
layer {
  name: "pool5"
  type: "Pooling"
  bottom: "conv5_3"
  top: "pool5"
  pooling_param {
    pool: MAX
    kernel_size: 2
    stride: 2
  }
}
layer {
  name: "fc6"
  type: "InnerProduct"
  bottom: "pool5"
  top: "fc6"
  param {
    lr_mult: 10
    decay_mult: 1
  }
  param {
    lr_mult: 20
    decay_mult: 0
  }
  inner_product_param {
    num_output: 4096
  }
}
layer {
  name: "relu6"
  type: "ReLU"
  bottom: "fc6"
  top: "fc6"
}
layer {
  name: "drop6"
  type: "Dropout"
  bottom: "fc6"
  top: "fc6"
  dropout_param {
    dropout_ratio: 0.5
  }
}
layer {
  name: "fc7"
  type: "InnerProduct"
  bottom: "fc6"
  top: "fc7"
  param {
    lr_mult: 10
    decay_mult: 1
  }
  param {
    lr_mult: 20
    decay_mult: 0
  }
  inner_product_param {
    num_output: 4096
  }
}
layer {
  name: "relu7"
  type: "ReLU"
  bottom: "fc7"
  top: "fc7"
}
layer {
  name: "drop7"
  type: "Dropout"
  bottom: "fc7"
  top: "fc7"
  dropout_param {
    dropout_ratio: 0.5
  }
}
layer {
  name: "fc8-101"
  type: "InnerProduct"
  bottom: "fc7"
  top: "fc8-101"
  param {
    lr_mult: 10
    decay_mult: 1
  }
  param {
    lr_mult: 20
    decay_mult: 0
  }
  inner_product_param {
    num_output: 101
    weight_filler {
      type: "gaussian"
      std: 0.01
    }
    bias_filler {
      type: "constant"
      value: 0
    }
  }
}
layer {
  name: "loss"
  type: "SoftmaxWithLoss"
  bottom: "fc8-101"
  bottom: "label"
  include {
    phase: TRAIN
  }
}
I0720 12:26:40.765019 31765 layer_factory.hpp:77] Creating layer data
I0720 12:26:40.765063 31765 net.cpp:84] Creating Layer data
I0720 12:26:40.765074 31765 net.cpp:380] data -> data
I0720 12:26:40.765101 31765 net.cpp:380] data -> label
I0720 12:26:40.765122 31765 data_transformer.cpp:25] Loading mean file from: /srv/glusterfs/hmahdi/IMDB/models/imagenet_mean.binaryproto
I0720 12:26:40.778780 31765 image_data_layer.cpp:38] Opening file /srv/glusterfs/hmahdi/IMDB/morph_target/Pre-training_sizes/100/MORPH_matched_100_training_set.txt
I0720 12:26:40.792613 31765 image_data_layer.cpp:63] A total of 100 images.
I0720 12:26:41.568007 31765 image_data_layer.cpp:90] output data size: 5,3,224,224
I0720 12:26:41.586124 31765 net.cpp:122] Setting up data
I0720 12:26:41.586174 31765 net.cpp:129] Top shape: 5 3 224 224 (752640)
I0720 12:26:41.586189 31765 net.cpp:129] Top shape: 5 (5)
I0720 12:26:41.586199 31765 net.cpp:137] Memory required for data: 3010580
I0720 12:26:41.586215 31765 layer_factory.hpp:77] Creating layer conv1_1
I0720 12:26:41.586252 31765 net.cpp:84] Creating Layer conv1_1
I0720 12:26:41.586266 31765 net.cpp:406] conv1_1 <- data
I0720 12:26:41.586295 31765 net.cpp:380] conv1_1 -> conv1_1
I0720 12:26:45.631690 31765 net.cpp:122] Setting up conv1_1
I0720 12:26:45.632477 31765 net.cpp:129] Top shape: 5 64 224 224 (16056320)
I0720 12:26:45.632491 31765 net.cpp:137] Memory required for data: 67235860
I0720 12:26:45.632526 31765 layer_factory.hpp:77] Creating layer relu1_1
I0720 12:26:45.632552 31765 net.cpp:84] Creating Layer relu1_1
I0720 12:26:45.632563 31765 net.cpp:406] relu1_1 <- conv1_1
I0720 12:26:45.632576 31765 net.cpp:367] relu1_1 -> conv1_1 (in-place)
I0720 12:26:45.633762 31765 net.cpp:122] Setting up relu1_1
I0720 12:26:45.633786 31765 net.cpp:129] Top shape: 5 64 224 224 (16056320)
I0720 12:26:45.633795 31765 net.cpp:137] Memory required for data: 131461140
I0720 12:26:45.633805 31765 layer_factory.hpp:77] Creating layer conv1_2
I0720 12:26:45.633826 31765 net.cpp:84] Creating Layer conv1_2
I0720 12:26:45.633836 31765 net.cpp:406] conv1_2 <- conv1_1
I0720 12:26:45.633849 31765 net.cpp:380] conv1_2 -> conv1_2
I0720 12:26:45.636828 31765 net.cpp:122] Setting up conv1_2
I0720 12:26:45.636852 31765 net.cpp:129] Top shape: 5 64 224 224 (16056320)
I0720 12:26:45.636860 31765 net.cpp:137] Memory required for data: 195686420
I0720 12:26:45.636878 31765 layer_factory.hpp:77] Creating layer relu1_2
I0720 12:26:45.636896 31765 net.cpp:84] Creating Layer relu1_2
I0720 12:26:45.636905 31765 net.cpp:406] relu1_2 <- conv1_2
I0720 12:26:45.636916 31765 net.cpp:367] relu1_2 -> conv1_2 (in-place)
I0720 12:26:45.637202 31765 net.cpp:122] Setting up relu1_2
I0720 12:26:45.637223 31765 net.cpp:129] Top shape: 5 64 224 224 (16056320)
I0720 12:26:45.637231 31765 net.cpp:137] Memory required for data: 259911700
I0720 12:26:45.637239 31765 layer_factory.hpp:77] Creating layer pool1
I0720 12:26:45.637253 31765 net.cpp:84] Creating Layer pool1
I0720 12:26:45.637260 31765 net.cpp:406] pool1 <- conv1_2
I0720 12:26:45.637284 31765 net.cpp:380] pool1 -> pool1
I0720 12:26:45.637370 31765 net.cpp:122] Setting up pool1
I0720 12:26:45.637444 31765 net.cpp:129] Top shape: 5 64 112 112 (4014080)
I0720 12:26:45.637452 31765 net.cpp:137] Memory required for data: 275968020
I0720 12:26:45.637460 31765 layer_factory.hpp:77] Creating layer conv2_1
I0720 12:26:45.637478 31765 net.cpp:84] Creating Layer conv2_1
I0720 12:26:45.637487 31765 net.cpp:406] conv2_1 <- pool1
I0720 12:26:45.637501 31765 net.cpp:380] conv2_1 -> conv2_1
I0720 12:26:45.643165 31765 net.cpp:122] Setting up conv2_1
I0720 12:26:45.643191 31765 net.cpp:129] Top shape: 5 128 112 112 (8028160)
I0720 12:26:45.643200 31765 net.cpp:137] Memory required for data: 308080660
I0720 12:26:45.643219 31765 layer_factory.hpp:77] Creating layer relu2_1
I0720 12:26:45.643232 31765 net.cpp:84] Creating Layer relu2_1
I0720 12:26:45.643240 31765 net.cpp:406] relu2_1 <- conv2_1
I0720 12:26:45.643252 31765 net.cpp:367] relu2_1 -> conv2_1 (in-place)
I0720 12:26:45.643553 31765 net.cpp:122] Setting up relu2_1
I0720 12:26:45.643573 31765 net.cpp:129] Top shape: 5 128 112 112 (8028160)
I0720 12:26:45.643580 31765 net.cpp:137] Memory required for data: 340193300
I0720 12:26:45.643589 31765 layer_factory.hpp:77] Creating layer conv2_2
I0720 12:26:45.643609 31765 net.cpp:84] Creating Layer conv2_2
I0720 12:26:45.643617 31765 net.cpp:406] conv2_2 <- conv2_1
I0720 12:26:45.643630 31765 net.cpp:380] conv2_2 -> conv2_2
I0720 12:26:45.646749 31765 net.cpp:122] Setting up conv2_2
I0720 12:26:45.646771 31765 net.cpp:129] Top shape: 5 128 112 112 (8028160)
I0720 12:26:45.646780 31765 net.cpp:137] Memory required for data: 372305940
I0720 12:26:45.646792 31765 layer_factory.hpp:77] Creating layer relu2_2
I0720 12:26:45.646806 31765 net.cpp:84] Creating Layer relu2_2
I0720 12:26:45.646816 31765 net.cpp:406] relu2_2 <- conv2_2
I0720 12:26:45.646826 31765 net.cpp:367] relu2_2 -> conv2_2 (in-place)
I0720 12:26:45.647917 31765 net.cpp:122] Setting up relu2_2
I0720 12:26:45.647938 31765 net.cpp:129] Top shape: 5 128 112 112 (8028160)
I0720 12:26:45.647943 31765 net.cpp:137] Memory required for data: 404418580
I0720 12:26:45.647951 31765 layer_factory.hpp:77] Creating layer pool2
I0720 12:26:45.647964 31765 net.cpp:84] Creating Layer pool2
I0720 12:26:45.647971 31765 net.cpp:406] pool2 <- conv2_2
I0720 12:26:45.647989 31765 net.cpp:380] pool2 -> pool2
I0720 12:26:45.648059 31765 net.cpp:122] Setting up pool2
I0720 12:26:45.648074 31765 net.cpp:129] Top shape: 5 128 56 56 (2007040)
I0720 12:26:45.648080 31765 net.cpp:137] Memory required for data: 412446740
I0720 12:26:45.648087 31765 layer_factory.hpp:77] Creating layer conv3_1
I0720 12:26:45.648104 31765 net.cpp:84] Creating Layer conv3_1
I0720 12:26:45.648113 31765 net.cpp:406] conv3_1 <- pool2
I0720 12:26:45.648126 31765 net.cpp:380] conv3_1 -> conv3_1
I0720 12:26:45.652114 31765 net.cpp:122] Setting up conv3_1
I0720 12:26:45.652137 31765 net.cpp:129] Top shape: 5 256 56 56 (4014080)
I0720 12:26:45.652144 31765 net.cpp:137] Memory required for data: 428503060
I0720 12:26:45.652161 31765 layer_factory.hpp:77] Creating layer relu3_1
I0720 12:26:45.652180 31765 net.cpp:84] Creating Layer relu3_1
I0720 12:26:45.652189 31765 net.cpp:406] relu3_1 <- conv3_1
I0720 12:26:45.652199 31765 net.cpp:367] relu3_1 -> conv3_1 (in-place)
I0720 12:26:45.652470 31765 net.cpp:122] Setting up relu3_1
I0720 12:26:45.652488 31765 net.cpp:129] Top shape: 5 256 56 56 (4014080)
I0720 12:26:45.652495 31765 net.cpp:137] Memory required for data: 444559380
I0720 12:26:45.652503 31765 layer_factory.hpp:77] Creating layer conv3_2
I0720 12:26:45.652520 31765 net.cpp:84] Creating Layer conv3_2
I0720 12:26:45.652529 31765 net.cpp:406] conv3_2 <- conv3_1
I0720 12:26:45.652542 31765 net.cpp:380] conv3_2 -> conv3_2
I0720 12:26:45.657369 31765 net.cpp:122] Setting up conv3_2
I0720 12:26:45.657392 31765 net.cpp:129] Top shape: 5 256 56 56 (4014080)
I0720 12:26:45.657399 31765 net.cpp:137] Memory required for data: 460615700
I0720 12:26:45.657413 31765 layer_factory.hpp:77] Creating layer relu3_2
I0720 12:26:45.657433 31765 net.cpp:84] Creating Layer relu3_2
I0720 12:26:45.657460 31765 net.cpp:406] relu3_2 <- conv3_2
I0720 12:26:45.657472 31765 net.cpp:367] relu3_2 -> conv3_2 (in-place)
I0720 12:26:45.657747 31765 net.cpp:122] Setting up relu3_2
I0720 12:26:45.657768 31765 net.cpp:129] Top shape: 5 256 56 56 (4014080)
I0720 12:26:45.657774 31765 net.cpp:137] Memory required for data: 476672020
I0720 12:26:45.657781 31765 layer_factory.hpp:77] Creating layer conv3_3
I0720 12:26:45.657797 31765 net.cpp:84] Creating Layer conv3_3
I0720 12:26:45.657805 31765 net.cpp:406] conv3_3 <- conv3_2
I0720 12:26:45.657819 31765 net.cpp:380] conv3_3 -> conv3_3
I0720 12:26:45.662500 31765 net.cpp:122] Setting up conv3_3
I0720 12:26:45.662524 31765 net.cpp:129] Top shape: 5 256 56 56 (4014080)
I0720 12:26:45.662531 31765 net.cpp:137] Memory required for data: 492728340
I0720 12:26:45.662544 31765 layer_factory.hpp:77] Creating layer relu3_3
I0720 12:26:45.662559 31765 net.cpp:84] Creating Layer relu3_3
I0720 12:26:45.662566 31765 net.cpp:406] relu3_3 <- conv3_3
I0720 12:26:45.662581 31765 net.cpp:367] relu3_3 -> conv3_3 (in-place)
I0720 12:26:45.663625 31765 net.cpp:122] Setting up relu3_3
I0720 12:26:45.663645 31765 net.cpp:129] Top shape: 5 256 56 56 (4014080)
I0720 12:26:45.663652 31765 net.cpp:137] Memory required for data: 508784660
I0720 12:26:45.663660 31765 layer_factory.hpp:77] Creating layer pool3
I0720 12:26:45.663671 31765 net.cpp:84] Creating Layer pool3
I0720 12:26:45.663678 31765 net.cpp:406] pool3 <- conv3_3
I0720 12:26:45.663688 31765 net.cpp:380] pool3 -> pool3
I0720 12:26:45.663759 31765 net.cpp:122] Setting up pool3
I0720 12:26:45.663774 31765 net.cpp:129] Top shape: 5 256 28 28 (1003520)
I0720 12:26:45.663780 31765 net.cpp:137] Memory required for data: 512798740
I0720 12:26:45.663787 31765 layer_factory.hpp:77] Creating layer conv4_1
I0720 12:26:45.663803 31765 net.cpp:84] Creating Layer conv4_1
I0720 12:26:45.663810 31765 net.cpp:406] conv4_1 <- pool3
I0720 12:26:45.663823 31765 net.cpp:380] conv4_1 -> conv4_1
I0720 12:26:45.671665 31765 net.cpp:122] Setting up conv4_1
I0720 12:26:45.671686 31765 net.cpp:129] Top shape: 5 512 28 28 (2007040)
I0720 12:26:45.671694 31765 net.cpp:137] Memory required for data: 520826900
I0720 12:26:45.671705 31765 layer_factory.hpp:77] Creating layer relu4_1
I0720 12:26:45.671716 31765 net.cpp:84] Creating Layer relu4_1
I0720 12:26:45.671727 31765 net.cpp:406] relu4_1 <- conv4_1
I0720 12:26:45.671736 31765 net.cpp:367] relu4_1 -> conv4_1 (in-place)
I0720 12:26:45.671982 31765 net.cpp:122] Setting up relu4_1
I0720 12:26:45.671998 31765 net.cpp:129] Top shape: 5 512 28 28 (2007040)
I0720 12:26:45.672004 31765 net.cpp:137] Memory required for data: 528855060
I0720 12:26:45.672010 31765 layer_factory.hpp:77] Creating layer conv4_2
I0720 12:26:45.672027 31765 net.cpp:84] Creating Layer conv4_2
I0720 12:26:45.672034 31765 net.cpp:406] conv4_2 <- conv4_1
I0720 12:26:45.672047 31765 net.cpp:380] conv4_2 -> conv4_2
I0720 12:26:45.681174 31765 net.cpp:122] Setting up conv4_2
I0720 12:26:45.681196 31765 net.cpp:129] Top shape: 5 512 28 28 (2007040)
I0720 12:26:45.681203 31765 net.cpp:137] Memory required for data: 536883220
I0720 12:26:45.681223 31765 layer_factory.hpp:77] Creating layer relu4_2
I0720 12:26:45.681236 31765 net.cpp:84] Creating Layer relu4_2
I0720 12:26:45.681243 31765 net.cpp:406] relu4_2 <- conv4_2
I0720 12:26:45.681257 31765 net.cpp:367] relu4_2 -> conv4_2 (in-place)
I0720 12:26:45.681501 31765 net.cpp:122] Setting up relu4_2
I0720 12:26:45.681517 31765 net.cpp:129] Top shape: 5 512 28 28 (2007040)
I0720 12:26:45.681524 31765 net.cpp:137] Memory required for data: 544911380
I0720 12:26:45.681530 31765 layer_factory.hpp:77] Creating layer conv4_3
I0720 12:26:45.681547 31765 net.cpp:84] Creating Layer conv4_3
I0720 12:26:45.681555 31765 net.cpp:406] conv4_3 <- conv4_2
I0720 12:26:45.681565 31765 net.cpp:380] conv4_3 -> conv4_3
I0720 12:26:45.690433 31765 net.cpp:122] Setting up conv4_3
I0720 12:26:45.690457 31765 net.cpp:129] Top shape: 5 512 28 28 (2007040)
I0720 12:26:45.690470 31765 net.cpp:137] Memory required for data: 552939540
I0720 12:26:45.690523 31765 layer_factory.hpp:77] Creating layer relu4_3
I0720 12:26:45.690536 31765 net.cpp:84] Creating Layer relu4_3
I0720 12:26:45.690543 31765 net.cpp:406] relu4_3 <- conv4_3
I0720 12:26:45.690557 31765 net.cpp:367] relu4_3 -> conv4_3 (in-place)
I0720 12:26:45.691516 31765 net.cpp:122] Setting up relu4_3
I0720 12:26:45.691534 31765 net.cpp:129] Top shape: 5 512 28 28 (2007040)
I0720 12:26:45.691540 31765 net.cpp:137] Memory required for data: 560967700
I0720 12:26:45.691547 31765 layer_factory.hpp:77] Creating layer pool4
I0720 12:26:45.691558 31765 net.cpp:84] Creating Layer pool4
I0720 12:26:45.691565 31765 net.cpp:406] pool4 <- conv4_3
I0720 12:26:45.691577 31765 net.cpp:380] pool4 -> pool4
I0720 12:26:45.691642 31765 net.cpp:122] Setting up pool4
I0720 12:26:45.691658 31765 net.cpp:129] Top shape: 5 512 14 14 (501760)
I0720 12:26:45.691663 31765 net.cpp:137] Memory required for data: 562974740
I0720 12:26:45.691669 31765 layer_factory.hpp:77] Creating layer conv5_1
I0720 12:26:45.691681 31765 net.cpp:84] Creating Layer conv5_1
I0720 12:26:45.691689 31765 net.cpp:406] conv5_1 <- pool4
I0720 12:26:45.691700 31765 net.cpp:380] conv5_1 -> conv5_1
I0720 12:26:45.700366 31765 net.cpp:122] Setting up conv5_1
I0720 12:26:45.700392 31765 net.cpp:129] Top shape: 5 512 14 14 (501760)
I0720 12:26:45.700399 31765 net.cpp:137] Memory required for data: 564981780
I0720 12:26:45.700410 31765 layer_factory.hpp:77] Creating layer relu5_1
I0720 12:26:45.700424 31765 net.cpp:84] Creating Layer relu5_1
I0720 12:26:45.700431 31765 net.cpp:406] relu5_1 <- conv5_1
I0720 12:26:45.700440 31765 net.cpp:367] relu5_1 -> conv5_1 (in-place)
I0720 12:26:45.700670 31765 net.cpp:122] Setting up relu5_1
I0720 12:26:45.700685 31765 net.cpp:129] Top shape: 5 512 14 14 (501760)
I0720 12:26:45.700690 31765 net.cpp:137] Memory required for data: 566988820
I0720 12:26:45.700697 31765 layer_factory.hpp:77] Creating layer conv5_2
I0720 12:26:45.700712 31765 net.cpp:84] Creating Layer conv5_2
I0720 12:26:45.700719 31765 net.cpp:406] conv5_2 <- conv5_1
I0720 12:26:45.700731 31765 net.cpp:380] conv5_2 -> conv5_2
I0720 12:26:45.709197 31765 net.cpp:122] Setting up conv5_2
I0720 12:26:45.709218 31765 net.cpp:129] Top shape: 5 512 14 14 (501760)
I0720 12:26:45.709224 31765 net.cpp:137] Memory required for data: 568995860
I0720 12:26:45.709235 31765 layer_factory.hpp:77] Creating layer relu5_2
I0720 12:26:45.709249 31765 net.cpp:84] Creating Layer relu5_2
I0720 12:26:45.709255 31765 net.cpp:406] relu5_2 <- conv5_2
I0720 12:26:45.709264 31765 net.cpp:367] relu5_2 -> conv5_2 (in-place)
I0720 12:26:45.709487 31765 net.cpp:122] Setting up relu5_2
I0720 12:26:45.709501 31765 net.cpp:129] Top shape: 5 512 14 14 (501760)
I0720 12:26:45.709506 31765 net.cpp:137] Memory required for data: 571002900
I0720 12:26:45.709513 31765 layer_factory.hpp:77] Creating layer conv5_3
I0720 12:26:45.709528 31765 net.cpp:84] Creating Layer conv5_3
I0720 12:26:45.709534 31765 net.cpp:406] conv5_3 <- conv5_2
I0720 12:26:45.709547 31765 net.cpp:380] conv5_3 -> conv5_3
I0720 12:26:45.718591 31765 net.cpp:122] Setting up conv5_3
I0720 12:26:45.718612 31765 net.cpp:129] Top shape: 5 512 14 14 (501760)
I0720 12:26:45.718618 31765 net.cpp:137] Memory required for data: 573009940
I0720 12:26:45.718629 31765 layer_factory.hpp:77] Creating layer relu5_3
I0720 12:26:45.718641 31765 net.cpp:84] Creating Layer relu5_3
I0720 12:26:45.718648 31765 net.cpp:406] relu5_3 <- conv5_3
I0720 12:26:45.718657 31765 net.cpp:367] relu5_3 -> conv5_3 (in-place)
I0720 12:26:45.719528 31765 net.cpp:122] Setting up relu5_3
I0720 12:26:45.719547 31765 net.cpp:129] Top shape: 5 512 14 14 (501760)
I0720 12:26:45.719552 31765 net.cpp:137] Memory required for data: 575016980
I0720 12:26:45.719558 31765 layer_factory.hpp:77] Creating layer pool5
I0720 12:26:45.719569 31765 net.cpp:84] Creating Layer pool5
I0720 12:26:45.719575 31765 net.cpp:406] pool5 <- conv5_3
I0720 12:26:45.719584 31765 net.cpp:380] pool5 -> pool5
I0720 12:26:45.719655 31765 net.cpp:122] Setting up pool5
I0720 12:26:45.719667 31765 net.cpp:129] Top shape: 5 512 7 7 (125440)
I0720 12:26:45.719713 31765 net.cpp:137] Memory required for data: 575518740
I0720 12:26:45.719719 31765 layer_factory.hpp:77] Creating layer fc6
I0720 12:26:45.719740 31765 net.cpp:84] Creating Layer fc6
I0720 12:26:45.719748 31765 net.cpp:406] fc6 <- pool5
I0720 12:26:45.719755 31765 net.cpp:380] fc6 -> fc6
I0720 12:26:45.984282 31765 net.cpp:122] Setting up fc6
I0720 12:26:45.984336 31765 net.cpp:129] Top shape: 5 4096 (20480)
I0720 12:26:45.984342 31765 net.cpp:137] Memory required for data: 575600660
I0720 12:26:45.984355 31765 layer_factory.hpp:77] Creating layer relu6
I0720 12:26:45.984371 31765 net.cpp:84] Creating Layer relu6
I0720 12:26:45.984378 31765 net.cpp:406] relu6 <- fc6
I0720 12:26:45.984388 31765 net.cpp:367] relu6 -> fc6 (in-place)
I0720 12:26:45.984673 31765 net.cpp:122] Setting up relu6
I0720 12:26:45.984685 31765 net.cpp:129] Top shape: 5 4096 (20480)
I0720 12:26:45.984690 31765 net.cpp:137] Memory required for data: 575682580
I0720 12:26:45.984696 31765 layer_factory.hpp:77] Creating layer drop6
I0720 12:26:45.984706 31765 net.cpp:84] Creating Layer drop6
I0720 12:26:45.984711 31765 net.cpp:406] drop6 <- fc6
I0720 12:26:45.984721 31765 net.cpp:367] drop6 -> fc6 (in-place)
I0720 12:26:45.984783 31765 net.cpp:122] Setting up drop6
I0720 12:26:45.984797 31765 net.cpp:129] Top shape: 5 4096 (20480)
I0720 12:26:45.984802 31765 net.cpp:137] Memory required for data: 575764500
I0720 12:26:45.984807 31765 layer_factory.hpp:77] Creating layer fc7
I0720 12:26:45.984818 31765 net.cpp:84] Creating Layer fc7
I0720 12:26:45.984823 31765 net.cpp:406] fc7 <- fc6
I0720 12:26:45.984832 31765 net.cpp:380] fc7 -> fc7
I0720 12:26:46.028031 31765 net.cpp:122] Setting up fc7
I0720 12:26:46.028084 31765 net.cpp:129] Top shape: 5 4096 (20480)
I0720 12:26:46.028090 31765 net.cpp:137] Memory required for data: 575846420
I0720 12:26:46.028102 31765 layer_factory.hpp:77] Creating layer relu7
I0720 12:26:46.028120 31765 net.cpp:84] Creating Layer relu7
I0720 12:26:46.028128 31765 net.cpp:406] relu7 <- fc7
I0720 12:26:46.028138 31765 net.cpp:367] relu7 -> fc7 (in-place)
I0720 12:26:46.029212 31765 net.cpp:122] Setting up relu7
I0720 12:26:46.029232 31765 net.cpp:129] Top shape: 5 4096 (20480)
I0720 12:26:46.029237 31765 net.cpp:137] Memory required for data: 575928340
I0720 12:26:46.029242 31765 layer_factory.hpp:77] Creating layer drop7
I0720 12:26:46.029253 31765 net.cpp:84] Creating Layer drop7
I0720 12:26:46.029258 31765 net.cpp:406] drop7 <- fc7
I0720 12:26:46.029266 31765 net.cpp:367] drop7 -> fc7 (in-place)
I0720 12:26:46.029309 31765 net.cpp:122] Setting up drop7
I0720 12:26:46.029320 31765 net.cpp:129] Top shape: 5 4096 (20480)
I0720 12:26:46.029325 31765 net.cpp:137] Memory required for data: 576010260
I0720 12:26:46.029330 31765 layer_factory.hpp:77] Creating layer fc8-101
I0720 12:26:46.029340 31765 net.cpp:84] Creating Layer fc8-101
I0720 12:26:46.029348 31765 net.cpp:406] fc8-101 <- fc7
I0720 12:26:46.029357 31765 net.cpp:380] fc8-101 -> fc8-101
I0720 12:26:46.035883 31765 net.cpp:122] Setting up fc8-101
I0720 12:26:46.035898 31765 net.cpp:129] Top shape: 5 101 (505)
I0720 12:26:46.035903 31765 net.cpp:137] Memory required for data: 576012280
I0720 12:26:46.035912 31765 layer_factory.hpp:77] Creating layer loss
I0720 12:26:46.035926 31765 net.cpp:84] Creating Layer loss
I0720 12:26:46.035933 31765 net.cpp:406] loss <- fc8-101
I0720 12:26:46.035938 31765 net.cpp:406] loss <- label
I0720 12:26:46.035949 31765 net.cpp:380] loss -> (automatic)
I0720 12:26:46.035965 31765 layer_factory.hpp:77] Creating layer loss
…
I0720 12:26:46.047236 31765 net.cpp:51] Initializing net from parameters: 
name: "VGG_ILSVRC_16_layers"
state {
  phase: TEST
  stage: "test-on-train"
}
layer {
  name: "data"
  type: "ImageData"
  top: "data"
  top: "label"
  include {
    phase: TEST
    stage: "test-on-train"
  }
  transform_param {
    mirror: false
    crop_size: 224
    mean_file: "/srv/glusterfs/hmahdi/IMDB/models/imagenet_mean.binaryproto"
  }
  image_data_param {
    source: "/srv/glusterfs/hmahdi/IMDB/morph_target/Pre-training_sizes/100/MORPH_matched_100_validation_set.txt"
    batch_size: 5
    new_height: 256
    new_width: 256
  }
}
layer {
  name: "conv1_1"
  type: "Convolution"
  bottom: "data"
  top: "conv1_1"
  param {
    lr_mult: 1
    decay_mult: 1
  }
  param {
    lr_mult: 2
    decay_mult: 0
  }
  convolution_param {
    num_output: 64
    pad: 1
    kernel_size: 3
  }
}
layer {
  name: "relu1_1"
  type: "ReLU"
  bottom: "conv1_1"
  top: "conv1_1"
}
layer {
  name: "conv1_2"
  type: "Convolution"
  bottom: "conv1_1"
  top: "conv1_2"
  param {
    lr_mult: 1
    decay_mult: 1
  }
  param {
    lr_mult: 2
    decay_mult: 0
  }
  convolution_param {
    num_output: 64
    pad: 1
    kernel_size: 3
  }
}
layer {
  name: "relu1_2"
  type: "ReLU"
  bottom: "conv1_2"
  top: "conv1_2"
}
layer {
  name: "pool1"
  type: "Pooling"
  bottom: "conv1_2"
  top: "pool1"
  pooling_param {
    pool: MAX
    kernel_size: 2
    stride: 2
  }
}
layer {
  name: "conv2_1"
  type: "Convolution"
  bottom: "pool1"
  top: "conv2_1"
  param {
    lr_mult: 1
    decay_mult: 1
  }
  param {
    lr_mult: 2
    decay_mult: 0
  }
  convolution_param {
    num_output: 128
    pad: 1
    kernel_size: 3
  }
}
layer {
  name: "relu2_1"
  type: "ReLU"
  bottom: "conv2_1"
  top: "conv2_1"
}
layer {
  name: "conv2_2"
  type: "Convolution"
  bottom: "conv2_1"
  top: "conv2_2"
  param {
    lr_mult: 1
    decay_mult: 1
  }
  param {
    lr_mult: 2
    decay_mult: 0
  }
  convolution_param {
    num_output: 128
    pad: 1
    kernel_size: 3
  }
}
layer {
  name: "relu2_2"
  type: "ReLU"
  bottom: "conv2_2"
  top: "conv2_2"
}
layer {
  name: "pool2"
  type: "Pooling"
  bottom: "conv2_2"
  top: "pool2"
  pooling_param {
    pool: MAX
    kernel_size: 2
    stride: 2
  }
}
layer {
  name: "conv3_1"
  type: "Convolution"
  bottom: "pool2"
  top: "conv3_1"
  param {
    lr_mult: 1
    decay_mult: 1
  }
  param {
    lr_mult: 2
    decay_mult: 0
  }
  convolution_param {
    num_output: 256
    pad: 1
    kernel_size: 3
  }
}
layer {
  name: "relu3_1"
  type: "ReLU"
  bottom: "conv3_1"
  top: "conv3_1"
}
layer {
  name: "conv3_2"
  type: "Convolution"
  bottom: "conv3_1"
  top: "conv3_2"
  param {
    lr_mult: 1
    decay_mult: 1
  }
  param {
    lr_mult: 2
    decay_mult: 0
  }
  convolution_param {
    num_output: 256
    pad: 1
    kernel_size: 3
  }
}
layer {
  name: "relu3_2"
  type: "ReLU"
  bottom: "conv3_2"
  top: "conv3_2"
}
layer {
  name: "conv3_3"
  type: "Convolution"
  bottom: "conv3_2"
  top: "conv3_3"
  param {
    lr_mult: 1
    decay_mult: 1
  }
  param {
    lr_mult: 2
    decay_mult: 0
  }
  convolution_param {
    num_output: 256
    pad: 1
    kernel_size: 3
  }
}
layer {
  name: "relu3_3"
  type: "ReLU"
  bottom: "conv3_3"
  top: "conv3_3"
}
layer {
  name: "pool3"
  type: "Pooling"
  bottom: "conv3_3"
  top: "pool3"
  pooling_param {
    pool: MAX
    kernel_size: 2
    stride: 2
  }
}
layer {
  name: "conv4_1"
  type: "Convolution"
  bottom: "pool3"
  top: "conv4_1"
  param {
    lr_mult: 1
    decay_mult: 1
  }
  param {
    lr_mult: 2
    decay_mult: 0
  }
  convolution_param {
    num_output: 512
    pad: 1
    kernel_size: 3
  }
}
layer {
  name: "relu4_1"
  type: "ReLU"
  bottom: "conv4_1"
  top: "conv4_1"
}
layer {
  name: "conv4_2"
  type: "Convolution"
  bottom: "conv4_1"
  top: "conv4_2"
  param {
    lr_mult: 1
    decay_mult: 1
  }
  param {
    lr_mult: 2
    decay_mult: 0
  }
  convolution_param {
    num_output: 512
    pad: 1
    kernel_size: 3
  }
}
layer {
  name: "relu4_2"
  type: "ReLU"
  bottom: "conv4_2"
  top: "conv4_2"
}
layer {
  name: "conv4_3"
  type: "Convolution"
  bottom: "conv4_2"
  top: "conv4_3"
  param {
    lr_mult: 1
    decay_mult: 1
  }
  param {
    lr_mult: 2
    decay_mult: 0
  }
  convolution_param {
    num_output: 512
    pad: 1
    kernel_size: 3
  }
}
layer {
  name: "relu4_3"
  type: "ReLU"
  bottom: "conv4_3"
  top: "conv4_3"
}
layer {
  name: "pool4"
  type: "Pooling"
  bottom: "conv4_3"
  top: "pool4"
  pooling_param {
    pool: MAX
    kernel_size: 2
    stride: 2
  }
}
layer {
  name: "conv5_1"
  type: "Convolution"
  bottom: "pool4"
  top: "conv5_1"
  param {
    lr_mult: 1
    decay_mult: 1
  }
  param {
    lr_mult: 2
    decay_mult: 0
  }
  convolution_param {
    num_output: 512
    pad: 1
    kernel_size: 3
  }
}
layer {
  name: "relu5_1"
  type: "ReLU"
  bottom: "conv5_1"
  top: "conv5_1"
}
layer {
  name: "conv5_2"
  type: "Convolution"
  bottom: "conv5_1"
  top: "conv5_2"
  param {
    lr_mult: 1
    decay_mult: 1
  }
  param {
    lr_mult: 2
    decay_mult: 0
  }
  convolution_param {
    num_output: 512
    pad: 1
    kernel_size: 3
  }
}
layer {
  name: "relu5_2"
  type: "ReLU"
  bottom: "conv5_2"
  top: "conv5_2"
}
layer {
  name: "conv5_3"
  type: "Convolution"
  bottom: "conv5_2"
  top: "conv5_3"
  param {
    lr_mult: 1
    decay_mult: 1
  }
  param {
    lr_mult: 2
    decay_mult: 0
  }
  convolution_param {
    num_output: 512
    pad: 1
    kernel_size: 3
  }
}
layer {
  name: "relu5_3"
  type: "ReLU"
  bottom: "conv5_3"
  top: "conv5_3"
}
layer {
  name: "pool5"
  type: "Pooling"
  bottom: "conv5_3"
  top: "pool5"
  pooling_param {
    pool: MAX
    kernel_size: 2
    stride: 2
  }
}
layer {
  name: "fc6"
  type: "InnerProduct"
  bottom: "pool5"
  top: "fc6"
  param {
    lr_mult: 10
    decay_mult: 1
  }
  param {
    lr_mult: 20
    decay_mult: 0
  }
  inner_product_param {
    num_output: 4096
  }
}
layer {
  name: "relu6"
  type: "ReLU"
  bottom: "fc6"
  top: "fc6"
}
layer {
  name: "drop6"
  type: "Dropout"
  bottom: "fc6"
  top: "fc6"
  dropout_param {
    dropout_ratio: 0.5
  }
}
layer {
  name: "fc7"
  type: "InnerProduct"
  bottom: "fc6"
  top: "fc7"
  param {
    lr_mult: 10
    decay_mult: 1
  }
  param {
    lr_mult: 20
    decay_mult: 0
  }
  inner_product_param {
    num_output: 4096
  }
}
layer {
  name: "relu7"
  type: "ReLU"
  bottom: "fc7"
  top: "fc7"
}
layer {
  name: "drop7"
  type: "Dropout"
  bottom: "fc7"
  top: "fc7"
  dropout_param {
    dropout_ratio: 0.5
  }
}
layer {
  name: "fc8-101"
  type: "InnerProduct"
  bottom: "fc7"
  top: "fc8-101"
  param {
    lr_mult: 10
    decay_mult: 1
  }
  param {
    lr_mult: 20
    decay_mult: 0
  }
  inner_product_param {
    num_output: 101
    weight_filler {
      type: "gaussian"
      std: 0.01
    }
    bias_filler {
      type: "constant"
      value: 0
    }
  }
}
layer {
  name: "prob"
  type: "Softmax"
  bottom: "fc8-101"
  top: "prob"
  include {
    phase: TEST
  }
}
layer {
  name: "accuracy_train_top01"
  type: "Accuracy"
  bottom: "fc8-101"
  bottom: "label"
  top: "accuracy_train_top01"
  include {
    phase: TEST
    stage: "test-on-train"
  }
}
layer {
  name: "accuracy_train_top05"
  type: "Accuracy"
  bottom: "fc8-101"
  bottom: "label"
  top: "accuracy_train_top05"
  include {
    phase: TEST
    stage: "test-on-train"
  }
  accuracy_param {
    top_k: 5
  }
}
layer {
  name: "accuracy_train_top10"
  type: "Accuracy"
  bottom: "fc8-101"
  bottom: "label"
  top: "accuracy_train_top10"
  include {
    phase: TEST
    stage: "test-on-train"
  }
  accuracy_param {
    top_k: 10
  }
}
I0720 12:26:46.047462 31765 layer_factory.hpp:77] Creating layer data
I0720 12:26:46.047484 31765 net.cpp:84] Creating Layer data
I0720 12:26:46.047492 31765 net.cpp:380] data -> data
I0720 12:26:46.047505 31765 net.cpp:380] data -> label
I0720 12:26:46.047518 31765 data_transformer.cpp:25] Loading mean file from: /srv/glusterfs/hmahdi/IMDB/models/imagenet_mean.binaryproto
I0720 12:26:46.052428 31765 image_data_layer.cpp:38] Opening file /srv/glusterfs/hmahdi/IMDB/morph_target/Pre-training_sizes/100/MORPH_matched_100_validation_set.txt
I0720 12:26:46.076364 31765 image_data_layer.cpp:63] A total of 13 images.
I0720 12:26:46.158884 31765 image_data_layer.cpp:90] output data size: 5,3,224,224
I0720 12:26:46.182967 31765 net.cpp:122] Setting up data
I0720 12:26:46.183006 31765 net.cpp:129] Top shape: 5 3 224 224 (752640)
I0720 12:26:46.183063 31765 net.cpp:129] Top shape: 5 (5)
I0720 12:26:46.183073 31765 net.cpp:137] Memory required for data: 3010580
I0720 12:26:46.183086 31765 layer_factory.hpp:77] Creating layer label_data_1_split
I0720 12:26:46.183110 31765 net.cpp:84] Creating Layer label_data_1_split
I0720 12:26:46.183122 31765 net.cpp:406] label_data_1_split <- label
I0720 12:26:46.183138 31765 net.cpp:380] label_data_1_split -> label_data_1_split_0
I0720 12:26:46.183161 31765 net.cpp:380] label_data_1_split -> label_data_1_split_1
I0720 12:26:46.183178 31765 net.cpp:380] label_data_1_split -> label_data_1_split_2
I0720 12:26:46.183310 31765 net.cpp:122] Setting up label_data_1_split
I0720 12:26:46.183331 31765 net.cpp:129] Top shape: 5 (5)
I0720 12:26:46.183341 31765 net.cpp:129] Top shape: 5 (5)
I0720 12:26:46.183352 31765 net.cpp:129] Top shape: 5 (5)
I0720 12:26:46.183362 31765 net.cpp:137] Memory required for data: 3010640
I0720 12:26:46.183370 31765 layer_factory.hpp:77] Creating layer conv1_1
I0720 12:26:46.183394 31765 net.cpp:84] Creating Layer conv1_1
I0720 12:26:46.183405 31765 net.cpp:406] conv1_1 <- data
I0720 12:26:46.183420 31765 net.cpp:380] conv1_1 -> conv1_1
I0720 12:26:46.187311 31765 net.cpp:122] Setting up conv1_1
I0720 12:26:46.187342 31765 net.cpp:129] Top shape: 5 64 224 224 (16056320)
I0720 12:26:46.187352 31765 net.cpp:137] Memory required for data: 67235920
I0720 12:26:46.187377 31765 layer_factory.hpp:77] Creating layer relu1_1
I0720 12:26:46.187397 31765 net.cpp:84] Creating Layer relu1_1
I0720 12:26:46.187407 31765 net.cpp:406] relu1_1 <- conv1_1
I0720 12:26:46.187423 31765 net.cpp:367] relu1_1 -> conv1_1 (in-place)
I0720 12:26:46.188853 31765 net.cpp:122] Setting up relu1_1
I0720 12:26:46.188881 31765 net.cpp:129] Top shape: 5 64 224 224 (16056320)
I0720 12:26:46.188891 31765 net.cpp:137] Memory required for data: 131461200
I0720 12:26:46.188902 31765 layer_factory.hpp:77] Creating layer conv1_2
I0720 12:26:46.188925 31765 net.cpp:84] Creating Layer conv1_2
I0720 12:26:46.188936 31765 net.cpp:406] conv1_2 <- conv1_1
I0720 12:26:46.188952 31765 net.cpp:380] conv1_2 -> conv1_2
I0720 12:26:46.192723 31765 net.cpp:122] Setting up conv1_2
I0720 12:26:46.192752 31765 net.cpp:129] Top shape: 5 64 224 224 (16056320)
I0720 12:26:46.192761 31765 net.cpp:137] Memory required for data: 195686480
I0720 12:26:46.192783 31765 layer_factory.hpp:77] Creating layer relu1_2
I0720 12:26:46.192800 31765 net.cpp:84] Creating Layer relu1_2
I0720 12:26:46.192811 31765 net.cpp:406] relu1_2 <- conv1_2
I0720 12:26:46.192824 31765 net.cpp:367] relu1_2 -> conv1_2 (in-place)
I0720 12:26:46.194306 31765 net.cpp:122] Setting up relu1_2
I0720 12:26:46.194334 31765 net.cpp:129] Top shape: 5 64 224 224 (16056320)
I0720 12:26:46.194342 31765 net.cpp:137] Memory required for data: 259911760
I0720 12:26:46.194352 31765 layer_factory.hpp:77] Creating layer pool1
I0720 12:26:46.194370 31765 net.cpp:84] Creating Layer pool1
I0720 12:26:46.194380 31765 net.cpp:406] pool1 <- conv1_2
I0720 12:26:46.194393 31765 net.cpp:380] pool1 -> pool1
I0720 12:26:46.194525 31765 net.cpp:122] Setting up pool1
I0720 12:26:46.194545 31765 net.cpp:129] Top shape: 5 64 112 112 (4014080)
I0720 12:26:46.194552 31765 net.cpp:137] Memory required for data: 275968080
I0720 12:26:46.194561 31765 layer_factory.hpp:77] Creating layer conv2_1
I0720 12:26:46.194578 31765 net.cpp:84] Creating Layer conv2_1
I0720 12:26:46.194587 31765 net.cpp:406] conv2_1 <- pool1
I0720 12:26:46.194602 31765 net.cpp:380] conv2_1 -> conv2_1
I0720 12:26:46.199399 31765 net.cpp:122] Setting up conv2_1
I0720 12:26:46.199430 31765 net.cpp:129] Top shape: 5 128 112 112 (8028160)
I0720 12:26:46.199440 31765 net.cpp:137] Memory required for data: 308080720
I0720 12:26:46.199462 31765 layer_factory.hpp:77] Creating layer relu2_1
I0720 12:26:46.199481 31765 net.cpp:84] Creating Layer relu2_1
I0720 12:26:46.199492 31765 net.cpp:406] relu2_1 <- conv2_1
I0720 12:26:46.199515 31765 net.cpp:367] relu2_1 -> conv2_1 (in-place)
I0720 12:26:46.199848 31765 net.cpp:122] Setting up relu2_1
I0720 12:26:46.199895 31765 net.cpp:129] Top shape: 5 128 112 112 (8028160)
I0720 12:26:46.199904 31765 net.cpp:137] Memory required for data: 340193360
I0720 12:26:46.199914 31765 layer_factory.hpp:77] Creating layer conv2_2
I0720 12:26:46.199934 31765 net.cpp:84] Creating Layer conv2_2
I0720 12:26:46.199944 31765 net.cpp:406] conv2_2 <- conv2_1
I0720 12:26:46.199959 31765 net.cpp:380] conv2_2 -> conv2_2
I0720 12:26:46.203629 31765 net.cpp:122] Setting up conv2_2
I0720 12:26:46.203657 31765 net.cpp:129] Top shape: 5 128 112 112 (8028160)
I0720 12:26:46.203666 31765 net.cpp:137] Memory required for data: 372306000
I0720 12:26:46.203681 31765 layer_factory.hpp:77] Creating layer relu2_2
I0720 12:26:46.203697 31765 net.cpp:84] Creating Layer relu2_2
I0720 12:26:46.203706 31765 net.cpp:406] relu2_2 <- conv2_2
I0720 12:26:46.203719 31765 net.cpp:367] relu2_2 -> conv2_2 (in-place)
I0720 12:26:46.204988 31765 net.cpp:122] Setting up relu2_2
I0720 12:26:46.205013 31765 net.cpp:129] Top shape: 5 128 112 112 (8028160)
I0720 12:26:46.205020 31765 net.cpp:137] Memory required for data: 404418640
I0720 12:26:46.205029 31765 layer_factory.hpp:77] Creating layer pool2
I0720 12:26:46.205046 31765 net.cpp:84] Creating Layer pool2
I0720 12:26:46.205055 31765 net.cpp:406] pool2 <- conv2_2
I0720 12:26:46.205070 31765 net.cpp:380] pool2 -> pool2
I0720 12:26:46.205162 31765 net.cpp:122] Setting up pool2
I0720 12:26:46.205178 31765 net.cpp:129] Top shape: 5 128 56 56 (2007040)
I0720 12:26:46.205186 31765 net.cpp:137] Memory required for data: 412446800
I0720 12:26:46.205195 31765 layer_factory.hpp:77] Creating layer conv3_1
I0720 12:26:46.205212 31765 net.cpp:84] Creating Layer conv3_1
I0720 12:26:46.205222 31765 net.cpp:406] conv3_1 <- pool2
I0720 12:26:46.205236 31765 net.cpp:380] conv3_1 -> conv3_1
I0720 12:26:46.208973 31765 net.cpp:122] Setting up conv3_1
I0720 12:26:46.209000 31765 net.cpp:129] Top shape: 5 256 56 56 (4014080)
I0720 12:26:46.209009 31765 net.cpp:137] Memory required for data: 428503120
I0720 12:26:46.209029 31765 layer_factory.hpp:77] Creating layer relu3_1
I0720 12:26:46.209045 31765 net.cpp:84] Creating Layer relu3_1
I0720 12:26:46.209055 31765 net.cpp:406] relu3_1 <- conv3_1
I0720 12:26:46.209069 31765 net.cpp:367] relu3_1 -> conv3_1 (in-place)
I0720 12:26:46.210325 31765 net.cpp:122] Setting up relu3_1
I0720 12:26:46.210350 31765 net.cpp:129] Top shape: 5 256 56 56 (4014080)
I0720 12:26:46.210358 31765 net.cpp:137] Memory required for data: 444559440
I0720 12:26:46.210368 31765 layer_factory.hpp:77] Creating layer conv3_2
I0720 12:26:46.210386 31765 net.cpp:84] Creating Layer conv3_2
I0720 12:26:46.210397 31765 net.cpp:406] conv3_2 <- conv3_1
I0720 12:26:46.212358 31765 net.cpp:380] conv3_2 -> conv3_2
I0720 12:26:46.217952 31765 net.cpp:122] Setting up conv3_2
I0720 12:26:46.217977 31765 net.cpp:129] Top shape: 5 256 56 56 (4014080)
I0720 12:26:46.217985 31765 net.cpp:137] Memory required for data: 460615760
I0720 12:26:46.218000 31765 layer_factory.hpp:77] Creating layer relu3_2
I0720 12:26:46.218014 31765 net.cpp:84] Creating Layer relu3_2
I0720 12:26:46.218024 31765 net.cpp:406] relu3_2 <- conv3_2
I0720 12:26:46.218036 31765 net.cpp:367] relu3_2 -> conv3_2 (in-place)
I0720 12:26:46.218333 31765 net.cpp:122] Setting up relu3_2
I0720 12:26:46.218354 31765 net.cpp:129] Top shape: 5 256 56 56 (4014080)
I0720 12:26:46.218361 31765 net.cpp:137] Memory required for data: 476672080
I0720 12:26:46.218370 31765 layer_factory.hpp:77] Creating layer conv3_3
I0720 12:26:46.218390 31765 net.cpp:84] Creating Layer conv3_3
I0720 12:26:46.218400 31765 net.cpp:406] conv3_3 <- conv3_2
I0720 12:26:46.218487 31765 net.cpp:380] conv3_3 -> conv3_3
I0720 12:26:46.228461 31765 net.cpp:122] Setting up conv3_3
I0720 12:26:46.228487 31765 net.cpp:129] Top shape: 5 256 56 56 (4014080)
I0720 12:26:46.228494 31765 net.cpp:137] Memory required for data: 492728400
I0720 12:26:46.228508 31765 layer_factory.hpp:77] Creating layer relu3_3
I0720 12:26:46.228528 31765 net.cpp:84] Creating Layer relu3_3
I0720 12:26:46.228538 31765 net.cpp:406] relu3_3 <- conv3_3
I0720 12:26:46.228570 31765 net.cpp:367] relu3_3 -> conv3_3 (in-place)
I0720 12:26:46.229743 31765 net.cpp:122] Setting up relu3_3
I0720 12:26:46.229764 31765 net.cpp:129] Top shape: 5 256 56 56 (4014080)
I0720 12:26:46.229773 31765 net.cpp:137] Memory required for data: 508784720
I0720 12:26:46.229781 31765 layer_factory.hpp:77] Creating layer pool3
I0720 12:26:46.229795 31765 net.cpp:84] Creating Layer pool3
I0720 12:26:46.229804 31765 net.cpp:406] pool3 <- conv3_3
I0720 12:26:46.229815 31765 net.cpp:380] pool3 -> pool3
I0720 12:26:46.229902 31765 net.cpp:122] Setting up pool3
I0720 12:26:46.229918 31765 net.cpp:129] Top shape: 5 256 28 28 (1003520)
I0720 12:26:46.229924 31765 net.cpp:137] Memory required for data: 512798800
I0720 12:26:46.229933 31765 layer_factory.hpp:77] Creating layer conv4_1
I0720 12:26:46.229948 31765 net.cpp:84] Creating Layer conv4_1
I0720 12:26:46.229957 31765 net.cpp:406] conv4_1 <- pool3
I0720 12:26:46.229969 31765 net.cpp:380] conv4_1 -> conv4_1
I0720 12:26:46.238515 31765 net.cpp:122] Setting up conv4_1
I0720 12:26:46.238539 31765 net.cpp:129] Top shape: 5 512 28 28 (2007040)
I0720 12:26:46.238548 31765 net.cpp:137] Memory required for data: 520826960
I0720 12:26:46.238560 31765 layer_factory.hpp:77] Creating layer relu4_1
I0720 12:26:46.238574 31765 net.cpp:84] Creating Layer relu4_1
I0720 12:26:46.238584 31765 net.cpp:406] relu4_1 <- conv4_1
I0720 12:26:46.238595 31765 net.cpp:367] relu4_1 -> conv4_1 (in-place)
I0720 12:26:46.238872 31765 net.cpp:122] Setting up relu4_1
I0720 12:26:46.238890 31765 net.cpp:129] Top shape: 5 512 28 28 (2007040)
I0720 12:26:46.238898 31765 net.cpp:137] Memory required for data: 528855120
I0720 12:26:46.238904 31765 layer_factory.hpp:77] Creating layer conv4_2
I0720 12:26:46.238920 31765 net.cpp:84] Creating Layer conv4_2
I0720 12:26:46.238929 31765 net.cpp:406] conv4_2 <- conv4_1
I0720 12:26:46.238941 31765 net.cpp:380] conv4_2 -> conv4_2
I0720 12:26:46.249564 31765 net.cpp:122] Setting up conv4_2
I0720 12:26:46.249593 31765 net.cpp:129] Top shape: 5 512 28 28 (2007040)
I0720 12:26:46.249601 31765 net.cpp:137] Memory required for data: 536883280
I0720 12:26:46.249624 31765 layer_factory.hpp:77] Creating layer relu4_2
I0720 12:26:46.249637 31765 net.cpp:84] Creating Layer relu4_2
I0720 12:26:46.249645 31765 net.cpp:406] relu4_2 <- conv4_2
I0720 12:26:46.249656 31765 net.cpp:367] relu4_2 -> conv4_2 (in-place)
I0720 12:26:46.249938 31765 net.cpp:122] Setting up relu4_2
I0720 12:26:46.249956 31765 net.cpp:129] Top shape: 5 512 28 28 (2007040)
I0720 12:26:46.249963 31765 net.cpp:137] Memory required for data: 544911440
I0720 12:26:46.249971 31765 layer_factory.hpp:77] Creating layer conv4_3
I0720 12:26:46.249989 31765 net.cpp:84] Creating Layer conv4_3
I0720 12:26:46.249997 31765 net.cpp:406] conv4_3 <- conv4_2
I0720 12:26:46.250010 31765 net.cpp:380] conv4_3 -> conv4_3
I0720 12:26:46.263125 31765 net.cpp:122] Setting up conv4_3
I0720 12:26:46.263155 31765 net.cpp:129] Top shape: 5 512 28 28 (2007040)
I0720 12:26:46.263162 31765 net.cpp:137] Memory required for data: 552939600
I0720 12:26:46.263176 31765 layer_factory.hpp:77] Creating layer relu4_3
I0720 12:26:46.263190 31765 net.cpp:84] Creating Layer relu4_3
I0720 12:26:46.263198 31765 net.cpp:406] relu4_3 <- conv4_3
I0720 12:26:46.263211 31765 net.cpp:367] relu4_3 -> conv4_3 (in-place)
I0720 12:26:46.264235 31765 net.cpp:122] Setting up relu4_3
I0720 12:26:46.264252 31765 net.cpp:129] Top shape: 5 512 28 28 (2007040)
I0720 12:26:46.264258 31765 net.cpp:137] Memory required for data: 560967760
I0720 12:26:46.264266 31765 layer_factory.hpp:77] Creating layer pool4
I0720 12:26:46.264279 31765 net.cpp:84] Creating Layer pool4
I0720 12:26:46.264286 31765 net.cpp:406] pool4 <- conv4_3
I0720 12:26:46.264299 31765 net.cpp:380] pool4 -> pool4
I0720 12:26:46.264379 31765 net.cpp:122] Setting up pool4
I0720 12:26:46.264394 31765 net.cpp:129] Top shape: 5 512 14 14 (501760)
I0720 12:26:46.264400 31765 net.cpp:137] Memory required for data: 562974800
I0720 12:26:46.264415 31765 layer_factory.hpp:77] Creating layer conv5_1
I0720 12:26:46.264473 31765 net.cpp:84] Creating Layer conv5_1
I0720 12:26:46.264482 31765 net.cpp:406] conv5_1 <- pool4
I0720 12:26:46.264494 31765 net.cpp:380] conv5_1 -> conv5_1
I0720 12:26:46.275887 31765 net.cpp:122] Setting up conv5_1
I0720 12:26:46.275918 31765 net.cpp:129] Top shape: 5 512 14 14 (501760)
I0720 12:26:46.275924 31765 net.cpp:137] Memory required for data: 564981840
I0720 12:26:46.275936 31765 layer_factory.hpp:77] Creating layer relu5_1
I0720 12:26:46.275949 31765 net.cpp:84] Creating Layer relu5_1
I0720 12:26:46.275955 31765 net.cpp:406] relu5_1 <- conv5_1
I0720 12:26:46.275967 31765 net.cpp:367] relu5_1 -> conv5_1 (in-place)
I0720 12:26:46.276219 31765 net.cpp:122] Setting up relu5_1
I0720 12:26:46.276235 31765 net.cpp:129] Top shape: 5 512 14 14 (501760)
I0720 12:26:46.276242 31765 net.cpp:137] Memory required for data: 566988880
I0720 12:26:46.276248 31765 layer_factory.hpp:77] Creating layer conv5_2
I0720 12:26:46.276264 31765 net.cpp:84] Creating Layer conv5_2
I0720 12:26:46.276273 31765 net.cpp:406] conv5_2 <- conv5_1
I0720 12:26:46.276284 31765 net.cpp:380] conv5_2 -> conv5_2
I0720 12:26:46.285187 31765 net.cpp:122] Setting up conv5_2
I0720 12:26:46.285212 31765 net.cpp:129] Top shape: 5 512 14 14 (501760)
I0720 12:26:46.285218 31765 net.cpp:137] Memory required for data: 568995920
I0720 12:26:46.285229 31765 layer_factory.hpp:77] Creating layer relu5_2
I0720 12:26:46.285243 31765 net.cpp:84] Creating Layer relu5_2
I0720 12:26:46.285250 31765 net.cpp:406] relu5_2 <- conv5_2
I0720 12:26:46.285264 31765 net.cpp:367] relu5_2 -> conv5_2 (in-place)
I0720 12:26:46.285517 31765 net.cpp:122] Setting up relu5_2
I0720 12:26:46.285533 31765 net.cpp:129] Top shape: 5 512 14 14 (501760)
I0720 12:26:46.285539 31765 net.cpp:137] Memory required for data: 571002960
I0720 12:26:46.285545 31765 layer_factory.hpp:77] Creating layer conv5_3
I0720 12:26:46.285562 31765 net.cpp:84] Creating Layer conv5_3
I0720 12:26:46.285569 31765 net.cpp:406] conv5_3 <- conv5_2
I0720 12:26:46.285579 31765 net.cpp:380] conv5_3 -> conv5_3
I0720 12:26:46.295070 31765 net.cpp:122] Setting up conv5_3
I0720 12:26:46.295090 31765 net.cpp:129] Top shape: 5 512 14 14 (501760)
I0720 12:26:46.295097 31765 net.cpp:137] Memory required for data: 573010000
I0720 12:26:46.295109 31765 layer_factory.hpp:77] Creating layer relu5_3
I0720 12:26:46.295121 31765 net.cpp:84] Creating Layer relu5_3
I0720 12:26:46.295128 31765 net.cpp:406] relu5_3 <- conv5_3
I0720 12:26:46.295137 31765 net.cpp:367] relu5_3 -> conv5_3 (in-place)
I0720 12:26:46.296087 31765 net.cpp:122] Setting up relu5_3
I0720 12:26:46.296103 31765 net.cpp:129] Top shape: 5 512 14 14 (501760)
I0720 12:26:46.296109 31765 net.cpp:137] Memory required for data: 575017040
I0720 12:26:46.296115 31765 layer_factory.hpp:77] Creating layer pool5
I0720 12:26:46.296136 31765 net.cpp:84] Creating Layer pool5
I0720 12:26:46.296144 31765 net.cpp:406] pool5 <- conv5_3
I0720 12:26:46.296154 31765 net.cpp:380] pool5 -> pool5
I0720 12:26:46.296233 31765 net.cpp:122] Setting up pool5
I0720 12:26:46.296245 31765 net.cpp:129] Top shape: 5 512 7 7 (125440)
I0720 12:26:46.296252 31765 net.cpp:137] Memory required for data: 575518800
I0720 12:26:46.296257 31765 layer_factory.hpp:77] Creating layer fc6
I0720 12:26:46.296269 31765 net.cpp:84] Creating Layer fc6
I0720 12:26:46.296278 31765 net.cpp:406] fc6 <- pool5
I0720 12:26:46.296288 31765 net.cpp:380] fc6 -> fc6
I0720 12:26:46.561282 31765 net.cpp:122] Setting up fc6
I0720 12:26:46.561337 31765 net.cpp:129] Top shape: 5 4096 (20480)
I0720 12:26:46.561343 31765 net.cpp:137] Memory required for data: 575600720
I0720 12:26:46.561357 31765 layer_factory.hpp:77] Creating layer relu6
I0720 12:26:46.561374 31765 net.cpp:84] Creating Layer relu6
I0720 12:26:46.561383 31765 net.cpp:406] relu6 <- fc6
I0720 12:26:46.561393 31765 net.cpp:367] relu6 -> fc6 (in-place)
I0720 12:26:46.561700 31765 net.cpp:122] Setting up relu6
I0720 12:26:46.561722 31765 net.cpp:129] Top shape: 5 4096 (20480)
I0720 12:26:46.561728 31765 net.cpp:137] Memory required for data: 575682640
I0720 12:26:46.561774 31765 layer_factory.hpp:77] Creating layer drop6
I0720 12:26:46.561784 31765 net.cpp:84] Creating Layer drop6
I0720 12:26:46.561789 31765 net.cpp:406] drop6 <- fc6
I0720 12:26:46.561797 31765 net.cpp:367] drop6 -> fc6 (in-place)
I0720 12:26:46.561846 31765 net.cpp:122] Setting up drop6
I0720 12:26:46.561857 31765 net.cpp:129] Top shape: 5 4096 (20480)
I0720 12:26:46.561861 31765 net.cpp:137] Memory required for data: 575764560
I0720 12:26:46.561867 31765 layer_factory.hpp:77] Creating layer fc7
I0720 12:26:46.561877 31765 net.cpp:84] Creating Layer fc7
I0720 12:26:46.561882 31765 net.cpp:406] fc7 <- fc6
I0720 12:26:46.561892 31765 net.cpp:380] fc7 -> fc7
I0720 12:26:46.604912 31765 net.cpp:122] Setting up fc7
I0720 12:26:46.604966 31765 net.cpp:129] Top shape: 5 4096 (20480)
I0720 12:26:46.604972 31765 net.cpp:137] Memory required for data: 575846480
I0720 12:26:46.604986 31765 layer_factory.hpp:77] Creating layer relu7
I0720 12:26:46.605002 31765 net.cpp:84] Creating Layer relu7
I0720 12:26:46.605015 31765 net.cpp:406] relu7 <- fc7
I0720 12:26:46.605026 31765 net.cpp:367] relu7 -> fc7 (in-place)
I0720 12:26:46.606129 31765 net.cpp:122] Setting up relu7
I0720 12:26:46.606145 31765 net.cpp:129] Top shape: 5 4096 (20480)
I0720 12:26:46.606150 31765 net.cpp:137] Memory required for data: 575928400
I0720 12:26:46.606156 31765 layer_factory.hpp:77] Creating layer drop7
I0720 12:26:46.606168 31765 net.cpp:84] Creating Layer drop7
I0720 12:26:46.606173 31765 net.cpp:406] drop7 <- fc7
I0720 12:26:46.606184 31765 net.cpp:367] drop7 -> fc7 (in-place)
I0720 12:26:46.606231 31765 net.cpp:122] Setting up drop7
I0720 12:26:46.606245 31765 net.cpp:129] Top shape: 5 4096 (20480)
I0720 12:26:46.606250 31765 net.cpp:137] Memory required for data: 576010320
I0720 12:26:46.606254 31765 layer_factory.hpp:77] Creating layer fc8-101
I0720 12:26:46.606266 31765 net.cpp:84] Creating Layer fc8-101
I0720 12:26:46.606272 31765 net.cpp:406] fc8-101 <- fc7
I0720 12:26:46.606282 31765 net.cpp:380] fc8-101 -> fc8-101
I0720 12:26:46.612896 31765 net.cpp:122] Setting up fc8-101
I0720 12:26:46.612911 31765 net.cpp:129] Top shape: 5 101 (505)
I0720 12:26:46.612916 31765 net.cpp:137] Memory required for data: 576012340
I0720 12:26:46.612926 31765 layer_factory.hpp:77] Creating layer fc8-101_fc8-101_0_split
I0720 12:26:46.612937 31765 net.cpp:84] Creating Layer fc8-101_fc8-101_0_split
I0720 12:26:46.612943 31765 net.cpp:406] fc8-101_fc8-101_0_split <- fc8-101
I0720 12:26:46.612953 31765 net.cpp:380] fc8-101_fc8-101_0_split -> fc8-101_fc8-101_0_split_0
I0720 12:26:46.612964 31765 net.cpp:380] fc8-101_fc8-101_0_split -> fc8-101_fc8-101_0_split_1
I0720 12:26:46.612974 31765 net.cpp:380] fc8-101_fc8-101_0_split -> fc8-101_fc8-101_0_split_2
I0720 12:26:46.612984 31765 net.cpp:380] fc8-101_fc8-101_0_split -> fc8-101_fc8-101_0_split_3
I0720 12:26:46.613072 31765 net.cpp:122] Setting up fc8-101_fc8-101_0_split
I0720 12:26:46.613083 31765 net.cpp:129] Top shape: 5 101 (505)
I0720 12:26:46.613090 31765 net.cpp:129] Top shape: 5 101 (505)
I0720 12:26:46.613095 31765 net.cpp:129] Top shape: 5 101 (505)
I0720 12:26:46.613101 31765 net.cpp:129] Top shape: 5 101 (505)
I0720 12:26:46.613106 31765 net.cpp:137] Memory required for data: 576020420
I0720 12:26:46.613111 31765 layer_factory.hpp:77] Creating layer prob
I0720 12:26:46.613121 31765 net.cpp:84] Creating Layer prob
I0720 12:26:46.613126 31765 net.cpp:406] prob <- fc8-101_fc8-101_0_split_0
I0720 12:26:46.613137 31765 net.cpp:380] prob -> prob
I0720 12:26:46.613435 31765 net.cpp:122] Setting up prob
I0720 12:26:46.613451 31765 net.cpp:129] Top shape: 5 101 (505)
I0720 12:26:46.613456 31765 net.cpp:137] Memory required for data: 576022440
I0720 12:26:46.613461 31765 layer_factory.hpp:77] Creating layer accuracy_train_top01
I0720 12:26:46.613471 31765 net.cpp:84] Creating Layer accuracy_train_top01
I0720 12:26:46.613477 31765 net.cpp:406] accuracy_train_top01 <- fc8-101_fc8-101_0_split_1
I0720 12:26:46.613489 31765 net.cpp:406] accuracy_train_top01 <- label_data_1_split_0
…
