…
I1029 21:07:16.692812 124783 net.cpp:287] The NetState phase (0) differed from the phase (1) specified by a rule in layer ev_accuracy_test
I1029 21:07:16.693414 124783 net.cpp:42] Initializing net from parameters: 
name: "VGG_ILSVRC_16_layers"
state {
  phase: TRAIN
}
layer {
  name: "data"
  type: "ImageData"
  top: "data"
  top: "label"
  include {
    phase: TRAIN
  }
  transform_param {
    mirror: true
    crop_size: 224
    mean_file: "/home/rrothe/git/caffe/caffe_gpu/data/ilsvrc12/imagenet_mean.binaryproto"
  }
  image_data_param {
    source: "/home/rrothe/git/chalearn/code/models/morph/2_1_aug_train.txt"
    batch_size: 10
    new_height: 256
    new_width: 256
  }
}
layer {
  name: "conv1_1"
  type: "Convolution"
  bottom: "data"
  top: "conv1_1"
  param {
    lr_mult: 1
    decay_mult: 1
  }
  param {
    lr_mult: 2
    decay_mult: 0
  }
  convolution_param {
    num_output: 64
    pad: 1
    kernel_size: 3
  }
}
layer {
  name: "relu1_1"
  type: "ReLU"
  bottom: "conv1_1"
  top: "conv1_1"
}
layer {
  name: "conv1_2"
  type: "Convolution"
  bottom: "conv1_1"
  top: "conv1_2"
  param {
    lr_mult: 1
    decay_mult: 1
  }
  param {
    lr_mult: 2
    decay_mult: 0
  }
  convolution_param {
    num_output: 64
    pad: 1
    kernel_size: 3
  }
}
layer {
  name: "relu1_2"
  type: "ReLU"
  bottom: "conv1_2"
  top: "conv1_2"
}
layer {
  name: "pool1"
  type: "Pooling"
  bottom: "conv1_2"
  top: "pool1"
  pooling_param {
    pool: MAX
    kernel_size: 2
    stride: 2
  }
}
layer {
  name: "conv2_1"
  type: "Convolution"
  bottom: "pool1"
  top: "conv2_1"
  param {
    lr_mult: 1
    decay_mult: 1
  }
  param {
    lr_mult: 2
    decay_mult: 0
  }
  convolution_param {
    num_output: 128
    pad: 1
    kernel_size: 3
  }
}
layer {
  name: "relu2_1"
  type: "ReLU"
  bottom: "conv2_1"
  top: "conv2_1"
}
layer {
  name: "conv2_2"
  type: "Convolution"
  bottom: "conv2_1"
  top: "conv2_2"
  param {
    lr_mult: 1
    decay_mult: 1
  }
  param {
    lr_mult: 2
    decay_mult: 0
  }
  convolution_param {
    num_output: 128
    pad: 1
    kernel_size: 3
  }
}
layer {
  name: "relu2_2"
  type: "ReLU"
  bottom: "conv2_2"
  top: "conv2_2"
}
layer {
  name: "pool2"
  type: "Pooling"
  bottom: "conv2_2"
  top: "pool2"
  pooling_param {
    pool: MAX
    kernel_size: 2
    stride: 2
  }
}
layer {
  name: "conv3_1"
  type: "Convolution"
  bottom: "pool2"
  top: "conv3_1"
  param {
    lr_mult: 1
    decay_mult: 1
  }
  param {
    lr_mult: 2
    decay_mult: 0
  }
  convolution_param {
    num_output: 256
    pad: 1
    kernel_size: 3
  }
}
layer {
  name: "relu3_1"
  type: "ReLU"
  bottom: "conv3_1"
  top: "conv3_1"
}
layer {
  name: "conv3_2"
  type: "Convolution"
  bottom: "conv3_1"
  top: "conv3_2"
  param {
    lr_mult: 1
    decay_mult: 1
  }
  param {
    lr_mult: 2
    decay_mult: 0
  }
  convolution_param {
    num_output: 256
    pad: 1
    kernel_size: 3
  }
}
layer {
  name: "relu3_2"
  type: "ReLU"
  bottom: "conv3_2"
  top: "conv3_2"
}
layer {
  name: "conv3_3"
  type: "Convolution"
  bottom: "conv3_2"
  top: "conv3_3"
  param {
    lr_mult: 1
    decay_mult: 1
  }
  param {
    lr_mult: 2
    decay_mult: 0
  }
  convolution_param {
    num_output: 256
    pad: 1
    kernel_size: 3
  }
}
layer {
  name: "relu3_3"
  type: "ReLU"
  bottom: "conv3_3"
  top: "conv3_3"
}
layer {
  name: "pool3"
  type: "Pooling"
  bottom: "conv3_3"
  top: "pool3"
  pooling_param {
    pool: MAX
    kernel_size: 2
    stride: 2
  }
}
layer {
  name: "conv4_1"
  type: "Convolution"
  bottom: "pool3"
  top: "conv4_1"
  param {
    lr_mult: 1
    decay_mult: 1
  }
  param {
    lr_mult: 2
    decay_mult: 0
  }
  convolution_param {
    num_output: 512
    pad: 1
    kernel_size: 3
  }
}
layer {
  name: "relu4_1"
  type: "ReLU"
  bottom: "conv4_1"
  top: "conv4_1"
}
layer {
  name: "conv4_2"
  type: "Convolution"
  bottom: "conv4_1"
  top: "conv4_2"
  param {
    lr_mult: 1
    decay_mult: 1
  }
  param {
    lr_mult: 2
    decay_mult: 0
  }
  convolution_param {
    num_output: 512
    pad: 1
    kernel_size: 3
  }
}
layer {
  name: "relu4_2"
  type: "ReLU"
  bottom: "conv4_2"
  top: "conv4_2"
}
layer {
  name: "conv4_3"
  type: "Convolution"
  bottom: "conv4_2"
  top: "conv4_3"
  param {
    lr_mult: 1
    decay_mult: 1
  }
  param {
    lr_mult: 2
    decay_mult: 0
  }
  convolution_param {
    num_output: 512
    pad: 1
    kernel_size: 3
  }
}
layer {
  name: "relu4_3"
  type: "ReLU"
  bottom: "conv4_3"
  top: "conv4_3"
}
layer {
  name: "pool4"
  type: "Pooling"
  bottom: "conv4_3"
  top: "pool4"
  pooling_param {
    pool: MAX
    kernel_size: 2
    stride: 2
  }
}
layer {
  name: "conv5_1"
  type: "Convolution"
  bottom: "pool4"
  top: "conv5_1"
  param {
    lr_mult: 1
    decay_mult: 1
  }
  param {
    lr_mult: 2
    decay_mult: 0
  }
  convolution_param {
    num_output: 512
    pad: 1
    kernel_size: 3
  }
}
layer {
  name: "relu5_1"
  type: "ReLU"
  bottom: "conv5_1"
  top: "conv5_1"
}
layer {
  name: "conv5_2"
  type: "Convolution"
  bottom: "conv5_1"
  top: "conv5_2"
  param {
    lr_mult: 1
    decay_mult: 1
  }
  param {
    lr_mult: 2
    decay_mult: 0
  }
  convolution_param {
    num_output: 512
    pad: 1
    kernel_size: 3
  }
}
layer {
  name: "relu5_2"
  type: "ReLU"
  bottom: "conv5_2"
  top: "conv5_2"
}
layer {
  name: "conv5_3"
  type: "Convolution"
  bottom: "conv5_2"
  top: "conv5_3"
  param {
    lr_mult: 1
    decay_mult: 1
  }
  param {
    lr_mult: 2
    decay_mult: 0
  }
  convolution_param {
    num_output: 512
    pad: 1
    kernel_size: 3
  }
}
layer {
  name: "relu5_3"
  type: "ReLU"
  bottom: "conv5_3"
  top: "conv5_3"
}
layer {
  name: "pool5"
  type: "Pooling"
  bottom: "conv5_3"
  top: "pool5"
  pooling_param {
    pool: MAX
    kernel_size: 2
    stride: 2
  }
}
layer {
  name: "fc6"
  type: "InnerProduct"
  bottom: "pool5"
  top: "fc6"
  param {
    lr_mult: 10
    decay_mult: 1
  }
  param {
    lr_mult: 20
    decay_mult: 0
  }
  inner_product_param {
    num_output: 4096
  }
}
layer {
  name: "relu6"
  type: "ReLU"
  bottom: "fc6"
  top: "fc6"
}
layer {
  name: "drop6"
  type: "Dropout"
  bottom: "fc6"
  top: "fc6"
  dropout_param {
    dropout_ratio: 0.5
  }
}
layer {
  name: "fc7"
  type: "InnerProduct"
  bottom: "fc6"
  top: "fc7"
  param {
    lr_mult: 10
    decay_mult: 1
  }
  param {
    lr_mult: 20
    decay_mult: 0
  }
  inner_product_param {
    num_output: 4096
  }
}
layer {
  name: "relu7"
  type: "ReLU"
  bottom: "fc7"
  top: "fc7"
}
layer {
  name: "drop7"
  type: "Dropout"
  bottom: "fc7"
  top: "fc7"
  dropout_param {
    dropout_ratio: 0.5
  }
}
layer {
  name: "fc8-101"
  type: "InnerProduct"
  bottom: "fc7"
  top: "fc8-101"
  param {
    lr_mult: 10
    decay_mult: 1
  }
  param {
    lr_mult: 20
    decay_mult: 0
  }
  inner_product_param {
    num_output: 101
    weight_filler {
      type: "gaussian"
      std: 0.01
    }
    bias_filler {
      type: "constant"
      value: 0
    }
  }
}
layer {
  name: "loss"
  type: "SoftmaxWithLoss"
  bottom: "fc8-101"
  bottom: "label"
  include {
    phase: TRAIN
  }
}
I1029 21:07:16.693765 124783 layer_factory.hpp:74] Creating layer data
I1029 21:07:16.693811 124783 net.cpp:90] Creating Layer data
I1029 21:07:16.693833 124783 net.cpp:368] data -> data
I1029 21:07:16.693920 124783 net.cpp:368] data -> label
I1029 21:07:16.693941 124783 net.cpp:120] Setting up data
I1029 21:07:16.693965 124783 data_transformer.cpp:22] Loading mean file from: /home/rrothe/git/caffe/caffe_gpu/data/ilsvrc12/imagenet_mean.binaryproto
I1029 21:07:16.699275 124783 image_data_layer.cpp:36] Opening file /home/rrothe/git/chalearn/code/models/morph/2_1_aug_train.txt
I1029 21:07:16.756005 124783 image_data_layer.cpp:51] A total of 48180 images.
I1029 21:07:16.801934 124783 image_data_layer.cpp:74] output data size: 10,3,224,224
I1029 21:07:16.809234 124783 net.cpp:127] Top shape: 10 3 224 224 (1505280)
I1029 21:07:16.809247 124783 net.cpp:127] Top shape: 10 (10)
I1029 21:07:16.809257 124783 layer_factory.hpp:74] Creating layer conv1_1
I1029 21:07:16.809276 124783 net.cpp:90] Creating Layer conv1_1
I1029 21:07:16.809284 124783 net.cpp:410] conv1_1 <- data
I1029 21:07:16.809309 124783 net.cpp:368] conv1_1 -> conv1_1
I1029 21:07:16.809325 124783 net.cpp:120] Setting up conv1_1
I1029 21:07:16.966157 124783 net.cpp:127] Top shape: 10 64 224 224 (32112640)
I1029 21:07:16.966218 124783 layer_factory.hpp:74] Creating layer relu1_1
I1029 21:07:16.966238 124783 net.cpp:90] Creating Layer relu1_1
I1029 21:07:16.966255 124783 net.cpp:410] relu1_1 <- conv1_1
I1029 21:07:16.966269 124783 net.cpp:357] relu1_1 -> conv1_1 (in-place)
I1029 21:07:16.966287 124783 net.cpp:120] Setting up relu1_1
I1029 21:07:16.966364 124783 net.cpp:127] Top shape: 10 64 224 224 (32112640)
I1029 21:07:16.966372 124783 layer_factory.hpp:74] Creating layer conv1_2
I1029 21:07:16.966383 124783 net.cpp:90] Creating Layer conv1_2
I1029 21:07:16.966388 124783 net.cpp:410] conv1_2 <- conv1_1
I1029 21:07:16.966397 124783 net.cpp:368] conv1_2 -> conv1_2
I1029 21:07:16.966408 124783 net.cpp:120] Setting up conv1_2
I1029 21:07:16.966995 124783 net.cpp:127] Top shape: 10 64 224 224 (32112640)
I1029 21:07:16.967011 124783 layer_factory.hpp:74] Creating layer relu1_2
I1029 21:07:16.967020 124783 net.cpp:90] Creating Layer relu1_2
I1029 21:07:16.967025 124783 net.cpp:410] relu1_2 <- conv1_2
I1029 21:07:16.967031 124783 net.cpp:357] relu1_2 -> conv1_2 (in-place)
I1029 21:07:16.967038 124783 net.cpp:120] Setting up relu1_2
I1029 21:07:16.967236 124783 net.cpp:127] Top shape: 10 64 224 224 (32112640)
I1029 21:07:16.967247 124783 layer_factory.hpp:74] Creating layer pool1
I1029 21:07:16.967265 124783 net.cpp:90] Creating Layer pool1
I1029 21:07:16.967270 124783 net.cpp:410] pool1 <- conv1_2
I1029 21:07:16.967278 124783 net.cpp:368] pool1 -> pool1
I1029 21:07:16.967288 124783 net.cpp:120] Setting up pool1
I1029 21:07:16.967391 124783 net.cpp:127] Top shape: 10 64 112 112 (8028160)
I1029 21:07:16.967401 124783 layer_factory.hpp:74] Creating layer conv2_1
I1029 21:07:16.967409 124783 net.cpp:90] Creating Layer conv2_1
I1029 21:07:16.967414 124783 net.cpp:410] conv2_1 <- pool1
I1029 21:07:16.967422 124783 net.cpp:368] conv2_1 -> conv2_1
I1029 21:07:16.967465 124783 net.cpp:120] Setting up conv2_1
I1029 21:07:16.968082 124783 net.cpp:127] Top shape: 10 128 112 112 (16056320)
I1029 21:07:16.968099 124783 layer_factory.hpp:74] Creating layer relu2_1
I1029 21:07:16.968107 124783 net.cpp:90] Creating Layer relu2_1
I1029 21:07:16.968111 124783 net.cpp:410] relu2_1 <- conv2_1
I1029 21:07:16.968123 124783 net.cpp:357] relu2_1 -> conv2_1 (in-place)
I1029 21:07:16.968130 124783 net.cpp:120] Setting up relu2_1
I1029 21:07:16.968217 124783 net.cpp:127] Top shape: 10 128 112 112 (16056320)
I1029 21:07:16.968225 124783 layer_factory.hpp:74] Creating layer conv2_2
I1029 21:07:16.968237 124783 net.cpp:90] Creating Layer conv2_2
I1029 21:07:16.968245 124783 net.cpp:410] conv2_2 <- conv2_1
I1029 21:07:16.968251 124783 net.cpp:368] conv2_2 -> conv2_2
I1029 21:07:16.968260 124783 net.cpp:120] Setting up conv2_2
I1029 21:07:16.968977 124783 net.cpp:127] Top shape: 10 128 112 112 (16056320)
I1029 21:07:16.968992 124783 layer_factory.hpp:74] Creating layer relu2_2
I1029 21:07:16.969002 124783 net.cpp:90] Creating Layer relu2_2
I1029 21:07:16.969005 124783 net.cpp:410] relu2_2 <- conv2_2
I1029 21:07:16.969012 124783 net.cpp:357] relu2_2 -> conv2_2 (in-place)
I1029 21:07:16.969019 124783 net.cpp:120] Setting up relu2_2
I1029 21:07:16.969094 124783 net.cpp:127] Top shape: 10 128 112 112 (16056320)
I1029 21:07:16.969101 124783 layer_factory.hpp:74] Creating layer pool2
I1029 21:07:16.969110 124783 net.cpp:90] Creating Layer pool2
I1029 21:07:16.969113 124783 net.cpp:410] pool2 <- conv2_2
I1029 21:07:16.969120 124783 net.cpp:368] pool2 -> pool2
I1029 21:07:16.969128 124783 net.cpp:120] Setting up pool2
I1029 21:07:16.969336 124783 net.cpp:127] Top shape: 10 128 56 56 (4014080)
I1029 21:07:16.969346 124783 layer_factory.hpp:74] Creating layer conv3_1
I1029 21:07:16.969355 124783 net.cpp:90] Creating Layer conv3_1
I1029 21:07:16.969360 124783 net.cpp:410] conv3_1 <- pool2
I1029 21:07:16.969367 124783 net.cpp:368] conv3_1 -> conv3_1
I1029 21:07:16.969379 124783 net.cpp:120] Setting up conv3_1
I1029 21:07:16.970237 124783 net.cpp:127] Top shape: 10 256 56 56 (8028160)
I1029 21:07:16.970253 124783 layer_factory.hpp:74] Creating layer relu3_1
I1029 21:07:16.970260 124783 net.cpp:90] Creating Layer relu3_1
I1029 21:07:16.970264 124783 net.cpp:410] relu3_1 <- conv3_1
I1029 21:07:16.970273 124783 net.cpp:357] relu3_1 -> conv3_1 (in-place)
I1029 21:07:16.970280 124783 net.cpp:120] Setting up relu3_1
I1029 21:07:16.970350 124783 net.cpp:127] Top shape: 10 256 56 56 (8028160)
I1029 21:07:16.970357 124783 layer_factory.hpp:74] Creating layer conv3_2
I1029 21:07:16.970366 124783 net.cpp:90] Creating Layer conv3_2
I1029 21:07:16.970371 124783 net.cpp:410] conv3_2 <- conv3_1
I1029 21:07:16.970377 124783 net.cpp:368] conv3_2 -> conv3_2
I1029 21:07:16.970386 124783 net.cpp:120] Setting up conv3_2
I1029 21:07:16.973181 124783 net.cpp:127] Top shape: 10 256 56 56 (8028160)
I1029 21:07:16.973196 124783 layer_factory.hpp:74] Creating layer relu3_2
I1029 21:07:16.973204 124783 net.cpp:90] Creating Layer relu3_2
I1029 21:07:16.973208 124783 net.cpp:410] relu3_2 <- conv3_2
I1029 21:07:16.973215 124783 net.cpp:357] relu3_2 -> conv3_2 (in-place)
I1029 21:07:16.973222 124783 net.cpp:120] Setting up relu3_2
I1029 21:07:16.973299 124783 net.cpp:127] Top shape: 10 256 56 56 (8028160)
I1029 21:07:16.973306 124783 layer_factory.hpp:74] Creating layer conv3_3
I1029 21:07:16.973315 124783 net.cpp:90] Creating Layer conv3_3
I1029 21:07:16.973320 124783 net.cpp:410] conv3_3 <- conv3_2
I1029 21:07:16.973328 124783 net.cpp:368] conv3_3 -> conv3_3
I1029 21:07:16.973336 124783 net.cpp:120] Setting up conv3_3
I1029 21:07:16.976240 124783 net.cpp:127] Top shape: 10 256 56 56 (8028160)
I1029 21:07:16.976255 124783 layer_factory.hpp:74] Creating layer relu3_3
I1029 21:07:16.976268 124783 net.cpp:90] Creating Layer relu3_3
I1029 21:07:16.976271 124783 net.cpp:410] relu3_3 <- conv3_3
I1029 21:07:16.976279 124783 net.cpp:357] relu3_3 -> conv3_3 (in-place)
I1029 21:07:16.976294 124783 net.cpp:120] Setting up relu3_3
I1029 21:07:16.976379 124783 net.cpp:127] Top shape: 10 256 56 56 (8028160)
I1029 21:07:16.976387 124783 layer_factory.hpp:74] Creating layer pool3
I1029 21:07:16.976394 124783 net.cpp:90] Creating Layer pool3
I1029 21:07:16.976399 124783 net.cpp:410] pool3 <- conv3_3
I1029 21:07:16.976410 124783 net.cpp:368] pool3 -> pool3
I1029 21:07:16.976419 124783 net.cpp:120] Setting up pool3
I1029 21:07:16.976634 124783 net.cpp:127] Top shape: 10 256 28 28 (2007040)
I1029 21:07:16.976644 124783 layer_factory.hpp:74] Creating layer conv4_1
I1029 21:07:16.976651 124783 net.cpp:90] Creating Layer conv4_1
I1029 21:07:16.976657 124783 net.cpp:410] conv4_1 <- pool3
I1029 21:07:16.976665 124783 net.cpp:368] conv4_1 -> conv4_1
I1029 21:07:16.976672 124783 net.cpp:120] Setting up conv4_1
I1029 21:07:16.982069 124783 net.cpp:127] Top shape: 10 512 28 28 (4014080)
I1029 21:07:16.982084 124783 layer_factory.hpp:74] Creating layer relu4_1
I1029 21:07:16.982091 124783 net.cpp:90] Creating Layer relu4_1
I1029 21:07:16.982095 124783 net.cpp:410] relu4_1 <- conv4_1
I1029 21:07:16.982101 124783 net.cpp:357] relu4_1 -> conv4_1 (in-place)
I1029 21:07:16.982108 124783 net.cpp:120] Setting up relu4_1
I1029 21:07:16.982184 124783 net.cpp:127] Top shape: 10 512 28 28 (4014080)
I1029 21:07:16.982192 124783 layer_factory.hpp:74] Creating layer conv4_2
I1029 21:07:16.982202 124783 net.cpp:90] Creating Layer conv4_2
I1029 21:07:16.982206 124783 net.cpp:410] conv4_2 <- conv4_1
I1029 21:07:16.982213 124783 net.cpp:368] conv4_2 -> conv4_2
I1029 21:07:16.982221 124783 net.cpp:120] Setting up conv4_2
I1029 21:07:16.992643 124783 net.cpp:127] Top shape: 10 512 28 28 (4014080)
I1029 21:07:16.992665 124783 layer_factory.hpp:74] Creating layer relu4_2
I1029 21:07:16.992671 124783 net.cpp:90] Creating Layer relu4_2
I1029 21:07:16.992676 124783 net.cpp:410] relu4_2 <- conv4_2
I1029 21:07:16.992682 124783 net.cpp:357] relu4_2 -> conv4_2 (in-place)
I1029 21:07:16.992688 124783 net.cpp:120] Setting up relu4_2
I1029 21:07:16.992770 124783 net.cpp:127] Top shape: 10 512 28 28 (4014080)
I1029 21:07:16.992777 124783 layer_factory.hpp:74] Creating layer conv4_3
I1029 21:07:16.992785 124783 net.cpp:90] Creating Layer conv4_3
I1029 21:07:16.992790 124783 net.cpp:410] conv4_3 <- conv4_2
I1029 21:07:16.992799 124783 net.cpp:368] conv4_3 -> conv4_3
I1029 21:07:16.992806 124783 net.cpp:120] Setting up conv4_3
I1029 21:07:17.003252 124783 net.cpp:127] Top shape: 10 512 28 28 (4014080)
I1029 21:07:17.003268 124783 layer_factory.hpp:74] Creating layer relu4_3
I1029 21:07:17.003280 124783 net.cpp:90] Creating Layer relu4_3
I1029 21:07:17.003284 124783 net.cpp:410] relu4_3 <- conv4_3
I1029 21:07:17.003291 124783 net.cpp:357] relu4_3 -> conv4_3 (in-place)
I1029 21:07:17.003298 124783 net.cpp:120] Setting up relu4_3
I1029 21:07:17.003384 124783 net.cpp:127] Top shape: 10 512 28 28 (4014080)
I1029 21:07:17.003391 124783 layer_factory.hpp:74] Creating layer pool4
I1029 21:07:17.003403 124783 net.cpp:90] Creating Layer pool4
I1029 21:07:17.003408 124783 net.cpp:410] pool4 <- conv4_3
I1029 21:07:17.003415 124783 net.cpp:368] pool4 -> pool4
I1029 21:07:17.003423 124783 net.cpp:120] Setting up pool4
I1029 21:07:17.003643 124783 net.cpp:127] Top shape: 10 512 14 14 (1003520)
I1029 21:07:17.003653 124783 layer_factory.hpp:74] Creating layer conv5_1
I1029 21:07:17.003662 124783 net.cpp:90] Creating Layer conv5_1
I1029 21:07:17.003667 124783 net.cpp:410] conv5_1 <- pool4
I1029 21:07:17.003674 124783 net.cpp:368] conv5_1 -> conv5_1
I1029 21:07:17.003686 124783 net.cpp:120] Setting up conv5_1
I1029 21:07:17.014202 124783 net.cpp:127] Top shape: 10 512 14 14 (1003520)
I1029 21:07:17.014217 124783 layer_factory.hpp:74] Creating layer relu5_1
I1029 21:07:17.014228 124783 net.cpp:90] Creating Layer relu5_1
I1029 21:07:17.014233 124783 net.cpp:410] relu5_1 <- conv5_1
I1029 21:07:17.014240 124783 net.cpp:357] relu5_1 -> conv5_1 (in-place)
I1029 21:07:17.014250 124783 net.cpp:120] Setting up relu5_1
I1029 21:07:17.014323 124783 net.cpp:127] Top shape: 10 512 14 14 (1003520)
I1029 21:07:17.014344 124783 layer_factory.hpp:74] Creating layer conv5_2
I1029 21:07:17.014353 124783 net.cpp:90] Creating Layer conv5_2
I1029 21:07:17.014358 124783 net.cpp:410] conv5_2 <- conv5_1
I1029 21:07:17.014367 124783 net.cpp:368] conv5_2 -> conv5_2
I1029 21:07:17.014375 124783 net.cpp:120] Setting up conv5_2
I1029 21:07:17.025048 124783 net.cpp:127] Top shape: 10 512 14 14 (1003520)
I1029 21:07:17.025063 124783 layer_factory.hpp:74] Creating layer relu5_2
I1029 21:07:17.025071 124783 net.cpp:90] Creating Layer relu5_2
I1029 21:07:17.025075 124783 net.cpp:410] relu5_2 <- conv5_2
I1029 21:07:17.025085 124783 net.cpp:357] relu5_2 -> conv5_2 (in-place)
I1029 21:07:17.025094 124783 net.cpp:120] Setting up relu5_2
I1029 21:07:17.025182 124783 net.cpp:127] Top shape: 10 512 14 14 (1003520)
I1029 21:07:17.025188 124783 layer_factory.hpp:74] Creating layer conv5_3
I1029 21:07:17.025197 124783 net.cpp:90] Creating Layer conv5_3
I1029 21:07:17.025202 124783 net.cpp:410] conv5_3 <- conv5_2
I1029 21:07:17.025212 124783 net.cpp:368] conv5_3 -> conv5_3
I1029 21:07:17.025219 124783 net.cpp:120] Setting up conv5_3
I1029 21:07:17.034978 124783 net.cpp:127] Top shape: 10 512 14 14 (1003520)
I1029 21:07:17.034994 124783 layer_factory.hpp:74] Creating layer relu5_3
I1029 21:07:17.035002 124783 net.cpp:90] Creating Layer relu5_3
I1029 21:07:17.035006 124783 net.cpp:410] relu5_3 <- conv5_3
I1029 21:07:17.035017 124783 net.cpp:357] relu5_3 -> conv5_3 (in-place)
I1029 21:07:17.035024 124783 net.cpp:120] Setting up relu5_3
I1029 21:07:17.035233 124783 net.cpp:127] Top shape: 10 512 14 14 (1003520)
I1029 21:07:17.035243 124783 layer_factory.hpp:74] Creating layer pool5
I1029 21:07:17.035254 124783 net.cpp:90] Creating Layer pool5
I1029 21:07:17.035259 124783 net.cpp:410] pool5 <- conv5_3
I1029 21:07:17.035265 124783 net.cpp:368] pool5 -> pool5
I1029 21:07:17.035274 124783 net.cpp:120] Setting up pool5
I1029 21:07:17.035356 124783 net.cpp:127] Top shape: 10 512 7 7 (250880)
I1029 21:07:17.035364 124783 layer_factory.hpp:74] Creating layer fc6
I1029 21:07:17.035397 124783 net.cpp:90] Creating Layer fc6
I1029 21:07:17.035403 124783 net.cpp:410] fc6 <- pool5
I1029 21:07:17.035409 124783 net.cpp:368] fc6 -> fc6
I1029 21:07:17.035421 124783 net.cpp:120] Setting up fc6
I1029 21:07:17.356847 124783 net.cpp:127] Top shape: 10 4096 (40960)
I1029 21:07:17.356887 124783 layer_factory.hpp:74] Creating layer relu6
I1029 21:07:17.356902 124783 net.cpp:90] Creating Layer relu6
I1029 21:07:17.356909 124783 net.cpp:410] relu6 <- fc6
I1029 21:07:17.356921 124783 net.cpp:357] relu6 -> fc6 (in-place)
I1029 21:07:17.356935 124783 net.cpp:120] Setting up relu6
I1029 21:07:17.357074 124783 net.cpp:127] Top shape: 10 4096 (40960)
I1029 21:07:17.357081 124783 layer_factory.hpp:74] Creating layer drop6
I1029 21:07:17.357096 124783 net.cpp:90] Creating Layer drop6
I1029 21:07:17.357101 124783 net.cpp:410] drop6 <- fc6
I1029 21:07:17.357108 124783 net.cpp:357] drop6 -> fc6 (in-place)
I1029 21:07:17.357118 124783 net.cpp:120] Setting up drop6
I1029 21:07:17.357134 124783 net.cpp:127] Top shape: 10 4096 (40960)
I1029 21:07:17.357138 124783 layer_factory.hpp:74] Creating layer fc7
I1029 21:07:17.357149 124783 net.cpp:90] Creating Layer fc7
I1029 21:07:17.357153 124783 net.cpp:410] fc7 <- fc6
I1029 21:07:17.357162 124783 net.cpp:368] fc7 -> fc7
I1029 21:07:17.357173 124783 net.cpp:120] Setting up fc7
I1029 21:07:17.405428 124783 net.cpp:127] Top shape: 10 4096 (40960)
I1029 21:07:17.405467 124783 layer_factory.hpp:74] Creating layer relu7
I1029 21:07:17.405482 124783 net.cpp:90] Creating Layer relu7
I1029 21:07:17.405488 124783 net.cpp:410] relu7 <- fc7
I1029 21:07:17.405500 124783 net.cpp:357] relu7 -> fc7 (in-place)
I1029 21:07:17.405514 124783 net.cpp:120] Setting up relu7
I1029 21:07:17.405655 124783 net.cpp:127] Top shape: 10 4096 (40960)
I1029 21:07:17.405663 124783 layer_factory.hpp:74] Creating layer drop7
I1029 21:07:17.405674 124783 net.cpp:90] Creating Layer drop7
I1029 21:07:17.405679 124783 net.cpp:410] drop7 <- fc7
I1029 21:07:17.405685 124783 net.cpp:357] drop7 -> fc7 (in-place)
I1029 21:07:17.405704 124783 net.cpp:120] Setting up drop7
I1029 21:07:17.405714 124783 net.cpp:127] Top shape: 10 4096 (40960)
I1029 21:07:17.405719 124783 layer_factory.hpp:74] Creating layer fc8-101
I1029 21:07:17.405730 124783 net.cpp:90] Creating Layer fc8-101
I1029 21:07:17.405735 124783 net.cpp:410] fc8-101 <- fc7
I1029 21:07:17.405745 124783 net.cpp:368] fc8-101 -> fc8-101
I1029 21:07:17.405755 124783 net.cpp:120] Setting up fc8-101
I1029 21:07:17.415470 124783 net.cpp:127] Top shape: 10 101 (1010)
I1029 21:07:17.415483 124783 layer_factory.hpp:74] Creating layer loss
I1029 21:07:17.415498 124783 net.cpp:90] Creating Layer loss
I1029 21:07:17.415503 124783 net.cpp:410] loss <- fc8-101
I1029 21:07:17.415508 124783 net.cpp:410] loss <- label
I1029 21:07:17.415518 124783 net.cpp:368] loss -> (automatic)
I1029 21:07:17.415526 124783 net.cpp:120] Setting up loss
I1029 21:07:17.415549 124783 layer_factory.hpp:74] Creating layer loss
…
I1029 21:07:17.421319 124783 net.cpp:42] Initializing net from parameters: 
name: "VGG_ILSVRC_16_layers"
state {
  phase: TEST
  stage: "test-on-train"
}
layer {
  name: "data"
  type: "ImageData"
  top: "data"
  top: "label"
  include {
    phase: TEST
    stage: "test-on-train"
  }
  transform_param {
    mirror: false
    crop_size: 224
    mean_file: "/home/rrothe/git/caffe/caffe_gpu/data/ilsvrc12/imagenet_mean.binaryproto"
  }
  image_data_param {
    source: "/home/rrothe/git/chalearn/code/models/morph/2_1_train.txt"
    batch_size: 10
    new_height: 256
    new_width: 256
  }
}
layer {
  name: "conv1_1"
  type: "Convolution"
  bottom: "data"
  top: "conv1_1"
  param {
    lr_mult: 1
    decay_mult: 1
  }
  param {
    lr_mult: 2
    decay_mult: 0
  }
  convolution_param {
    num_output: 64
    pad: 1
    kernel_size: 3
  }
}
layer {
  name: "relu1_1"
  type: "ReLU"
  bottom: "conv1_1"
  top: "conv1_1"
}
layer {
  name: "conv1_2"
  type: "Convolution"
  bottom: "conv1_1"
  top: "conv1_2"
  param {
    lr_mult: 1
    decay_mult: 1
  }
  param {
    lr_mult: 2
    decay_mult: 0
  }
  convolution_param {
    num_output: 64
    pad: 1
    kernel_size: 3
  }
}
layer {
  name: "relu1_2"
  type: "ReLU"
  bottom: "conv1_2"
  top: "conv1_2"
}
layer {
  name: "pool1"
  type: "Pooling"
  bottom: "conv1_2"
  top: "pool1"
  pooling_param {
    pool: MAX
    kernel_size: 2
    stride: 2
  }
}
layer {
  name: "conv2_1"
  type: "Convolution"
  bottom: "pool1"
  top: "conv2_1"
  param {
    lr_mult: 1
    decay_mult: 1
  }
  param {
    lr_mult: 2
    decay_mult: 0
  }
  convolution_param {
    num_output: 128
    pad: 1
    kernel_size: 3
  }
}
layer {
  name: "relu2_1"
  type: "ReLU"
  bottom: "conv2_1"
  top: "conv2_1"
}
layer {
  name: "conv2_2"
  type: "Convolution"
  bottom: "conv2_1"
  top: "conv2_2"
  param {
    lr_mult: 1
    decay_mult: 1
  }
  param {
    lr_mult: 2
    decay_mult: 0
  }
  convolution_param {
    num_output: 128
    pad: 1
    kernel_size: 3
  }
}
layer {
  name: "relu2_2"
  type: "ReLU"
  bottom: "conv2_2"
  top: "conv2_2"
}
layer {
  name: "pool2"
  type: "Pooling"
  bottom: "conv2_2"
  top: "pool2"
  pooling_param {
    pool: MAX
    kernel_size: 2
    stride: 2
  }
}
layer {
  name: "conv3_1"
  type: "Convolution"
  bottom: "pool2"
  top: "conv3_1"
  param {
    lr_mult: 1
    decay_mult: 1
  }
  param {
    lr_mult: 2
    decay_mult: 0
  }
  convolution_param {
    num_output: 256
    pad: 1
    kernel_size: 3
  }
}
layer {
  name: "relu3_1"
  type: "ReLU"
  bottom: "conv3_1"
  top: "conv3_1"
}
layer {
  name: "conv3_2"
  type: "Convolution"
  bottom: "conv3_1"
  top: "conv3_2"
  param {
    lr_mult: 1
    decay_mult: 1
  }
  param {
    lr_mult: 2
    decay_mult: 0
  }
  convolution_param {
    num_output: 256
    pad: 1
    kernel_size: 3
  }
}
layer {
  name: "relu3_2"
  type: "ReLU"
  bottom: "conv3_2"
  top: "conv3_2"
}
layer {
  name: "conv3_3"
  type: "Convolution"
  bottom: "conv3_2"
  top: "conv3_3"
  param {
    lr_mult: 1
    decay_mult: 1
  }
  param {
    lr_mult: 2
    decay_mult: 0
  }
  convolution_param {
    num_output: 256
    pad: 1
    kernel_size: 3
  }
}
layer {
  name: "relu3_3"
  type: "ReLU"
  bottom: "conv3_3"
  top: "conv3_3"
}
layer {
  name: "pool3"
  type: "Pooling"
  bottom: "conv3_3"
  top: "pool3"
  pooling_param {
    pool: MAX
    kernel_size: 2
    stride: 2
  }
}
layer {
  name: "conv4_1"
  type: "Convolution"
  bottom: "pool3"
  top: "conv4_1"
  param {
    lr_mult: 1
    decay_mult: 1
  }
  param {
    lr_mult: 2
    decay_mult: 0
  }
  convolution_param {
    num_output: 512
    pad: 1
    kernel_size: 3
  }
}
layer {
  name: "relu4_1"
  type: "ReLU"
  bottom: "conv4_1"
  top: "conv4_1"
}
layer {
  name: "conv4_2"
  type: "Convolution"
  bottom: "conv4_1"
  top: "conv4_2"
  param {
    lr_mult: 1
    decay_mult: 1
  }
  param {
    lr_mult: 2
    decay_mult: 0
  }
  convolution_param {
    num_output: 512
    pad: 1
    kernel_size: 3
  }
}
layer {
  name: "relu4_2"
  type: "ReLU"
  bottom: "conv4_2"
  top: "conv4_2"
}
layer {
  name: "conv4_3"
  type: "Convolution"
  bottom: "conv4_2"
  top: "conv4_3"
  param {
    lr_mult: 1
    decay_mult: 1
  }
  param {
    lr_mult: 2
    decay_mult: 0
  }
  convolution_param {
    num_output: 512
    pad: 1
    kernel_size: 3
  }
}
layer {
  name: "relu4_3"
  type: "ReLU"
  bottom: "conv4_3"
  top: "conv4_3"
}
layer {
  name: "pool4"
  type: "Pooling"
  bottom: "conv4_3"
  top: "pool4"
  pooling_param {
    pool: MAX
    kernel_size: 2
    stride: 2
  }
}
layer {
  name: "conv5_1"
  type: "Convolution"
  bottom: "pool4"
  top: "conv5_1"
  param {
    lr_mult: 1
    decay_mult: 1
  }
  param {
    lr_mult: 2
    decay_mult: 0
  }
  convolution_param {
    num_output: 512
    pad: 1
    kernel_size: 3
  }
}
layer {
  name: "relu5_1"
  type: "ReLU"
  bottom: "conv5_1"
  top: "conv5_1"
}
layer {
  name: "conv5_2"
  type: "Convolution"
  bottom: "conv5_1"
  top: "conv5_2"
  param {
    lr_mult: 1
    decay_mult: 1
  }
  param {
    lr_mult: 2
    decay_mult: 0
  }
  convolution_param {
    num_output: 512
    pad: 1
    kernel_size: 3
  }
}
layer {
  name: "relu5_2"
  type: "ReLU"
  bottom: "conv5_2"
  top: "conv5_2"
}
layer {
  name: "conv5_3"
  type: "Convolution"
  bottom: "conv5_2"
  top: "conv5_3"
  param {
    lr_mult: 1
    decay_mult: 1
  }
  param {
    lr_mult: 2
    decay_mult: 0
  }
  convolution_param {
    num_output: 512
    pad: 1
    kernel_size: 3
  }
}
layer {
  name: "relu5_3"
  type: "ReLU"
  bottom: "conv5_3"
  top: "conv5_3"
}
layer {
  name: "pool5"
  type: "Pooling"
  bottom: "conv5_3"
  top: "pool5"
  pooling_param {
    pool: MAX
    kernel_size: 2
    stride: 2
  }
}
layer {
  name: "fc6"
  type: "InnerProduct"
  bottom: "pool5"
  top: "fc6"
  param {
    lr_mult: 10
    decay_mult: 1
  }
  param {
    lr_mult: 20
    decay_mult: 0
  }
  inner_product_param {
    num_output: 4096
  }
}
layer {
  name: "relu6"
  type: "ReLU"
  bottom: "fc6"
  top: "fc6"
}
layer {
  name: "drop6"
  type: "Dropout"
  bottom: "fc6"
  top: "fc6"
  dropout_param {
    dropout_ratio: 0.5
  }
}
layer {
  name: "fc7"
  type: "InnerProduct"
  bottom: "fc6"
  top: "fc7"
  param {
    lr_mult: 10
    decay_mult: 1
  }
  param {
    lr_mult: 20
    decay_mult: 0
  }
  inner_product_param {
    num_output: 4096
  }
}
layer {
  name: "relu7"
  type: "ReLU"
  bottom: "fc7"
  top: "fc7"
}
layer {
  name: "drop7"
  type: "Dropout"
  bottom: "fc7"
  top: "fc7"
  dropout_param {
    dropout_ratio: 0.5
  }
}
layer {
  name: "fc8-101"
  type: "InnerProduct"
  bottom: "fc7"
  top: "fc8-101"
  param {
    lr_mult: 10
    decay_mult: 1
  }
  param {
    lr_mult: 20
    decay_mult: 0
  }
  inner_product_param {
    num_output: 101
    weight_filler {
      type: "gaussian"
      std: 0.01
    }
    bias_filler {
      type: "constant"
      value: 0
    }
  }
}
layer {
  name: "prob"
  type: "Softmax"
  bottom: "fc8-101"
  top: "prob"
  include {
    phase: TEST
  }
}
layer {
  name: "accuracy_train_top01"
  type: "Accuracy"
  bottom: "fc8-101"
  bottom: "label"
  top: "accuracy_train_top01"
  include {
    phase: TEST
    stage: "test-on-train"
  }
}
layer {
  name: "accuracy_train_top05"
  type: "Accuracy"
  bottom: "fc8-101"
  bottom: "label"
  top: "accuracy_train_top05"
  include {
    phase: TEST
    stage: "test-on-train"
  }
  accuracy_param {
    top_k: 5
  }
}
layer {
  name: "accuracy_train_top10"
  type: "Accuracy"
  bottom: "fc8-101"
  bottom: "label"
  top: "accuracy_train_top10"
  include {
    phase: TEST
    stage: "test-on-train"
  }
  accuracy_param {
    top_k: 10
  }
}
layer {
  name: "ev_accuracy_train"
  type: "EVAccuracy"
  bottom: "prob"
  bottom: "label"
  top: "ev_accuracy_train"
  include {
    phase: TEST
    stage: "test-on-train"
  }
}
I1029 21:07:17.421562 124783 layer_factory.hpp:74] Creating layer data
I1029 21:07:17.421578 124783 net.cpp:90] Creating Layer data
I1029 21:07:17.421584 124783 net.cpp:368] data -> data
I1029 21:07:17.421597 124783 net.cpp:368] data -> label
I1029 21:07:17.421604 124783 net.cpp:120] Setting up data
I1029 21:07:17.421610 124783 data_transformer.cpp:22] Loading mean file from: /home/rrothe/git/caffe/caffe_gpu/data/ilsvrc12/imagenet_mean.binaryproto
I1029 21:07:17.428249 124783 image_data_layer.cpp:36] Opening file /home/rrothe/git/chalearn/code/models/morph/2_1_train.txt
I1029 21:07:17.437968 124783 image_data_layer.cpp:51] A total of 4380 images.
I1029 21:07:17.446744 124783 image_data_layer.cpp:74] output data size: 10,3,224,224
I1029 21:07:17.453626 124783 net.cpp:127] Top shape: 10 3 224 224 (1505280)
I1029 21:07:17.453649 124783 net.cpp:127] Top shape: 10 (10)
I1029 21:07:17.453662 124783 layer_factory.hpp:74] Creating layer label_data_1_split
I1029 21:07:17.453690 124783 net.cpp:90] Creating Layer label_data_1_split
I1029 21:07:17.453699 124783 net.cpp:410] label_data_1_split <- label
I1029 21:07:17.453714 124783 net.cpp:368] label_data_1_split -> label_data_1_split_0
I1029 21:07:17.453733 124783 net.cpp:368] label_data_1_split -> label_data_1_split_1
I1029 21:07:17.453758 124783 net.cpp:368] label_data_1_split -> label_data_1_split_2
I1029 21:07:17.453773 124783 net.cpp:368] label_data_1_split -> label_data_1_split_3
I1029 21:07:17.453785 124783 net.cpp:120] Setting up label_data_1_split
I1029 21:07:17.453805 124783 net.cpp:127] Top shape: 10 (10)
I1029 21:07:17.453816 124783 net.cpp:127] Top shape: 10 (10)
I1029 21:07:17.453826 124783 net.cpp:127] Top shape: 10 (10)
I1029 21:07:17.453835 124783 net.cpp:127] Top shape: 10 (10)
I1029 21:07:17.453845 124783 layer_factory.hpp:74] Creating layer conv1_1
I1029 21:07:17.453862 124783 net.cpp:90] Creating Layer conv1_1
I1029 21:07:17.453871 124783 net.cpp:410] conv1_1 <- data
I1029 21:07:17.453886 124783 net.cpp:368] conv1_1 -> conv1_1
I1029 21:07:17.453908 124783 net.cpp:120] Setting up conv1_1
I1029 21:07:17.454746 124783 net.cpp:127] Top shape: 10 64 224 224 (32112640)
I1029 21:07:17.454782 124783 layer_factory.hpp:74] Creating layer relu1_1
I1029 21:07:17.454797 124783 net.cpp:90] Creating Layer relu1_1
I1029 21:07:17.454805 124783 net.cpp:410] relu1_1 <- conv1_1
I1029 21:07:17.454818 124783 net.cpp:357] relu1_1 -> conv1_1 (in-place)
I1029 21:07:17.454833 124783 net.cpp:120] Setting up relu1_1
I1029 21:07:17.454972 124783 net.cpp:127] Top shape: 10 64 224 224 (32112640)
I1029 21:07:17.454985 124783 layer_factory.hpp:74] Creating layer conv1_2
I1029 21:07:17.455003 124783 net.cpp:90] Creating Layer conv1_2
I1029 21:07:17.455010 124783 net.cpp:410] conv1_2 <- conv1_1
I1029 21:07:17.455024 124783 net.cpp:368] conv1_2 -> conv1_2
I1029 21:07:17.455039 124783 net.cpp:120] Setting up conv1_2
I1029 21:07:17.455935 124783 net.cpp:127] Top shape: 10 64 224 224 (32112640)
I1029 21:07:17.455971 124783 layer_factory.hpp:74] Creating layer relu1_2
I1029 21:07:17.455986 124783 net.cpp:90] Creating Layer relu1_2
I1029 21:07:17.456009 124783 net.cpp:410] relu1_2 <- conv1_2
I1029 21:07:17.456024 124783 net.cpp:357] relu1_2 -> conv1_2 (in-place)
I1029 21:07:17.456038 124783 net.cpp:120] Setting up relu1_2
I1029 21:07:17.456203 124783 net.cpp:127] Top shape: 10 64 224 224 (32112640)
I1029 21:07:17.456218 124783 layer_factory.hpp:74] Creating layer pool1
I1029 21:07:17.456233 124783 net.cpp:90] Creating Layer pool1
I1029 21:07:17.456243 124783 net.cpp:410] pool1 <- conv1_2
I1029 21:07:17.456255 124783 net.cpp:368] pool1 -> pool1
I1029 21:07:17.456274 124783 net.cpp:120] Setting up pool1
I1029 21:07:17.456432 124783 net.cpp:127] Top shape: 10 64 112 112 (8028160)
I1029 21:07:17.456447 124783 layer_factory.hpp:74] Creating layer conv2_1
I1029 21:07:17.456465 124783 net.cpp:90] Creating Layer conv2_1
I1029 21:07:17.456475 124783 net.cpp:410] conv2_1 <- pool1
I1029 21:07:17.456488 124783 net.cpp:368] conv2_1 -> conv2_1
I1029 21:07:17.456508 124783 net.cpp:120] Setting up conv2_1
I1029 21:07:17.457609 124783 net.cpp:127] Top shape: 10 128 112 112 (16056320)
I1029 21:07:17.457643 124783 layer_factory.hpp:74] Creating layer relu2_1
I1029 21:07:17.457659 124783 net.cpp:90] Creating Layer relu2_1
I1029 21:07:17.457669 124783 net.cpp:410] relu2_1 <- conv2_1
I1029 21:07:17.457686 124783 net.cpp:357] relu2_1 -> conv2_1 (in-place)
I1029 21:07:17.457701 124783 net.cpp:120] Setting up relu2_1
I1029 21:07:17.458112 124783 net.cpp:127] Top shape: 10 128 112 112 (16056320)
I1029 21:07:17.458163 124783 layer_factory.hpp:74] Creating layer conv2_2
I1029 21:07:17.458179 124783 net.cpp:90] Creating Layer conv2_2
I1029 21:07:17.458187 124783 net.cpp:410] conv2_2 <- conv2_1
I1029 21:07:17.458202 124783 net.cpp:368] conv2_2 -> conv2_2
I1029 21:07:17.458220 124783 net.cpp:120] Setting up conv2_2
I1029 21:07:17.459673 124783 net.cpp:127] Top shape: 10 128 112 112 (16056320)
I1029 21:07:17.459703 124783 layer_factory.hpp:74] Creating layer relu2_2
I1029 21:07:17.459717 124783 net.cpp:90] Creating Layer relu2_2
I1029 21:07:17.459727 124783 net.cpp:410] relu2_2 <- conv2_2
I1029 21:07:17.459748 124783 net.cpp:357] relu2_2 -> conv2_2 (in-place)
I1029 21:07:17.459764 124783 net.cpp:120] Setting up relu2_2
I1029 21:07:17.459921 124783 net.cpp:127] Top shape: 10 128 112 112 (16056320)
I1029 21:07:17.459936 124783 layer_factory.hpp:74] Creating layer pool2
I1029 21:07:17.459950 124783 net.cpp:90] Creating Layer pool2
I1029 21:07:17.459961 124783 net.cpp:410] pool2 <- conv2_2
I1029 21:07:17.459978 124783 net.cpp:368] pool2 -> pool2
I1029 21:07:17.459992 124783 net.cpp:120] Setting up pool2
I1029 21:07:17.460150 124783 net.cpp:127] Top shape: 10 128 56 56 (4014080)
I1029 21:07:17.460165 124783 layer_factory.hpp:74] Creating layer conv3_1
I1029 21:07:17.460181 124783 net.cpp:90] Creating Layer conv3_1
I1029 21:07:17.460196 124783 net.cpp:410] conv3_1 <- pool2
I1029 21:07:17.460209 124783 net.cpp:368] conv3_1 -> conv3_1
I1029 21:07:17.460223 124783 net.cpp:120] Setting up conv3_1
I1029 21:07:17.462239 124783 net.cpp:127] Top shape: 10 256 56 56 (8028160)
I1029 21:07:17.462277 124783 layer_factory.hpp:74] Creating layer relu3_1
I1029 21:07:17.462293 124783 net.cpp:90] Creating Layer relu3_1
I1029 21:07:17.462303 124783 net.cpp:410] relu3_1 <- conv3_1
I1029 21:07:17.462316 124783 net.cpp:357] relu3_1 -> conv3_1 (in-place)
I1029 21:07:17.462330 124783 net.cpp:120] Setting up relu3_1
I1029 21:07:17.462486 124783 net.cpp:127] Top shape: 10 256 56 56 (8028160)
I1029 21:07:17.462504 124783 layer_factory.hpp:74] Creating layer conv3_2
I1029 21:07:17.462522 124783 net.cpp:90] Creating Layer conv3_2
I1029 21:07:17.462532 124783 net.cpp:410] conv3_2 <- conv3_1
I1029 21:07:17.462545 124783 net.cpp:368] conv3_2 -> conv3_2
I1029 21:07:17.462563 124783 net.cpp:120] Setting up conv3_2
I1029 21:07:17.466635 124783 net.cpp:127] Top shape: 10 256 56 56 (8028160)
I1029 21:07:17.466665 124783 layer_factory.hpp:74] Creating layer relu3_2
I1029 21:07:17.466682 124783 net.cpp:90] Creating Layer relu3_2
I1029 21:07:17.466692 124783 net.cpp:410] relu3_2 <- conv3_2
I1029 21:07:17.466717 124783 net.cpp:357] relu3_2 -> conv3_2 (in-place)
I1029 21:07:17.466732 124783 net.cpp:120] Setting up relu3_2
I1029 21:07:17.467119 124783 net.cpp:127] Top shape: 10 256 56 56 (8028160)
I1029 21:07:17.467139 124783 layer_factory.hpp:74] Creating layer conv3_3
I1029 21:07:17.467162 124783 net.cpp:90] Creating Layer conv3_3
I1029 21:07:17.467175 124783 net.cpp:410] conv3_3 <- conv3_2
I1029 21:07:17.467192 124783 net.cpp:368] conv3_3 -> conv3_3
I1029 21:07:17.467211 124783 net.cpp:120] Setting up conv3_3
I1029 21:07:17.469585 124783 net.cpp:127] Top shape: 10 256 56 56 (8028160)
I1029 21:07:17.469599 124783 layer_factory.hpp:74] Creating layer relu3_3
I1029 21:07:17.469606 124783 net.cpp:90] Creating Layer relu3_3
I1029 21:07:17.469610 124783 net.cpp:410] relu3_3 <- conv3_3
I1029 21:07:17.469619 124783 net.cpp:357] relu3_3 -> conv3_3 (in-place)
I1029 21:07:17.469625 124783 net.cpp:120] Setting up relu3_3
I1029 21:07:17.469701 124783 net.cpp:127] Top shape: 10 256 56 56 (8028160)
I1029 21:07:17.469707 124783 layer_factory.hpp:74] Creating layer pool3
I1029 21:07:17.469717 124783 net.cpp:90] Creating Layer pool3
I1029 21:07:17.469722 124783 net.cpp:410] pool3 <- conv3_3
I1029 21:07:17.469727 124783 net.cpp:368] pool3 -> pool3
I1029 21:07:17.469734 124783 net.cpp:120] Setting up pool3
I1029 21:07:17.469813 124783 net.cpp:127] Top shape: 10 256 28 28 (2007040)
I1029 21:07:17.469821 124783 layer_factory.hpp:74] Creating layer conv4_1
I1029 21:07:17.469827 124783 net.cpp:90] Creating Layer conv4_1
I1029 21:07:17.469832 124783 net.cpp:410] conv4_1 <- pool3
I1029 21:07:17.469840 124783 net.cpp:368] conv4_1 -> conv4_1
I1029 21:07:17.469849 124783 net.cpp:120] Setting up conv4_1
I1029 21:07:17.473670 124783 net.cpp:127] Top shape: 10 512 28 28 (4014080)
I1029 21:07:17.473683 124783 layer_factory.hpp:74] Creating layer relu4_1
I1029 21:07:17.473690 124783 net.cpp:90] Creating Layer relu4_1
I1029 21:07:17.473695 124783 net.cpp:410] relu4_1 <- conv4_1
I1029 21:07:17.473701 124783 net.cpp:357] relu4_1 -> conv4_1 (in-place)
I1029 21:07:17.473708 124783 net.cpp:120] Setting up relu4_1
I1029 21:07:17.473929 124783 net.cpp:127] Top shape: 10 512 28 28 (4014080)
I1029 21:07:17.473938 124783 layer_factory.hpp:74] Creating layer conv4_2
I1029 21:07:17.473947 124783 net.cpp:90] Creating Layer conv4_2
I1029 21:07:17.473951 124783 net.cpp:410] conv4_2 <- conv4_1
I1029 21:07:17.473960 124783 net.cpp:368] conv4_2 -> conv4_2
I1029 21:07:17.473969 124783 net.cpp:120] Setting up conv4_2
I1029 21:07:17.481173 124783 net.cpp:127] Top shape: 10 512 28 28 (4014080)
I1029 21:07:17.481194 124783 layer_factory.hpp:74] Creating layer relu4_2
I1029 21:07:17.481204 124783 net.cpp:90] Creating Layer relu4_2
I1029 21:07:17.481207 124783 net.cpp:410] relu4_2 <- conv4_2
I1029 21:07:17.481215 124783 net.cpp:357] relu4_2 -> conv4_2 (in-place)
I1029 21:07:17.481222 124783 net.cpp:120] Setting up relu4_2
I1029 21:07:17.481312 124783 net.cpp:127] Top shape: 10 512 28 28 (4014080)
I1029 21:07:17.481323 124783 layer_factory.hpp:74] Creating layer conv4_3
I1029 21:07:17.481331 124783 net.cpp:90] Creating Layer conv4_3
I1029 21:07:17.481335 124783 net.cpp:410] conv4_3 <- conv4_2
I1029 21:07:17.481345 124783 net.cpp:368] conv4_3 -> conv4_3
I1029 21:07:17.481353 124783 net.cpp:120] Setting up conv4_3
I1029 21:07:17.488523 124783 net.cpp:127] Top shape: 10 512 28 28 (4014080)
I1029 21:07:17.488538 124783 layer_factory.hpp:74] Creating layer relu4_3
I1029 21:07:17.488548 124783 net.cpp:90] Creating Layer relu4_3
I1029 21:07:17.488553 124783 net.cpp:410] relu4_3 <- conv4_3
I1029 21:07:17.488559 124783 net.cpp:357] relu4_3 -> conv4_3 (in-place)
I1029 21:07:17.488566 124783 net.cpp:120] Setting up relu4_3
I1029 21:07:17.488638 124783 net.cpp:127] Top shape: 10 512 28 28 (4014080)
I1029 21:07:17.488646 124783 layer_factory.hpp:74] Creating layer pool4
I1029 21:07:17.488657 124783 net.cpp:90] Creating Layer pool4
I1029 21:07:17.488662 124783 net.cpp:410] pool4 <- conv4_3
I1029 21:07:17.488668 124783 net.cpp:368] pool4 -> pool4
I1029 21:07:17.488677 124783 net.cpp:120] Setting up pool4
I1029 21:07:17.488767 124783 net.cpp:127] Top shape: 10 512 14 14 (1003520)
I1029 21:07:17.488775 124783 layer_factory.hpp:74] Creating layer conv5_1
I1029 21:07:17.488782 124783 net.cpp:90] Creating Layer conv5_1
I1029 21:07:17.488786 124783 net.cpp:410] conv5_1 <- pool4
I1029 21:07:17.488793 124783 net.cpp:368] conv5_1 -> conv5_1
I1029 21:07:17.488801 124783 net.cpp:120] Setting up conv5_1
I1029 21:07:17.496028 124783 net.cpp:127] Top shape: 10 512 14 14 (1003520)
I1029 21:07:17.496043 124783 layer_factory.hpp:74] Creating layer relu5_1
I1029 21:07:17.496052 124783 net.cpp:90] Creating Layer relu5_1
I1029 21:07:17.496057 124783 net.cpp:410] relu5_1 <- conv5_1
I1029 21:07:17.496064 124783 net.cpp:357] relu5_1 -> conv5_1 (in-place)
I1029 21:07:17.496071 124783 net.cpp:120] Setting up relu5_1
I1029 21:07:17.496290 124783 net.cpp:127] Top shape: 10 512 14 14 (1003520)
I1029 21:07:17.496300 124783 layer_factory.hpp:74] Creating layer conv5_2
I1029 21:07:17.496315 124783 net.cpp:90] Creating Layer conv5_2
I1029 21:07:17.496320 124783 net.cpp:410] conv5_2 <- conv5_1
I1029 21:07:17.496326 124783 net.cpp:368] conv5_2 -> conv5_2
I1029 21:07:17.496335 124783 net.cpp:120] Setting up conv5_2
I1029 21:07:17.503526 124783 net.cpp:127] Top shape: 10 512 14 14 (1003520)
I1029 21:07:17.503541 124783 layer_factory.hpp:74] Creating layer relu5_2
I1029 21:07:17.503551 124783 net.cpp:90] Creating Layer relu5_2
I1029 21:07:17.503556 124783 net.cpp:410] relu5_2 <- conv5_2
I1029 21:07:17.503562 124783 net.cpp:357] relu5_2 -> conv5_2 (in-place)
I1029 21:07:17.503568 124783 net.cpp:120] Setting up relu5_2
I1029 21:07:17.503710 124783 net.cpp:127] Top shape: 10 512 14 14 (1003520)
I1029 21:07:17.503718 124783 layer_factory.hpp:74] Creating layer conv5_3
I1029 21:07:17.503731 124783 net.cpp:90] Creating Layer conv5_3
I1029 21:07:17.503736 124783 net.cpp:410] conv5_3 <- conv5_2
I1029 21:07:17.503742 124783 net.cpp:368] conv5_3 -> conv5_3
I1029 21:07:17.503751 124783 net.cpp:120] Setting up conv5_3
I1029 21:07:17.510936 124783 net.cpp:127] Top shape: 10 512 14 14 (1003520)
I1029 21:07:17.510951 124783 layer_factory.hpp:74] Creating layer relu5_3
I1029 21:07:17.510958 124783 net.cpp:90] Creating Layer relu5_3
I1029 21:07:17.510962 124783 net.cpp:410] relu5_3 <- conv5_3
I1029 21:07:17.510969 124783 net.cpp:357] relu5_3 -> conv5_3 (in-place)
I1029 21:07:17.510975 124783 net.cpp:120] Setting up relu5_3
I1029 21:07:17.511059 124783 net.cpp:127] Top shape: 10 512 14 14 (1003520)
I1029 21:07:17.511066 124783 layer_factory.hpp:74] Creating layer pool5
I1029 21:07:17.511085 124783 net.cpp:90] Creating Layer pool5
I1029 21:07:17.511090 124783 net.cpp:410] pool5 <- conv5_3
I1029 21:07:17.511098 124783 net.cpp:368] pool5 -> pool5
I1029 21:07:17.511106 124783 net.cpp:120] Setting up pool5
I1029 21:07:17.511186 124783 net.cpp:127] Top shape: 10 512 7 7 (250880)
I1029 21:07:17.511193 124783 layer_factory.hpp:74] Creating layer fc6
I1029 21:07:17.511205 124783 net.cpp:90] Creating Layer fc6
I1029 21:07:17.511210 124783 net.cpp:410] fc6 <- pool5
I1029 21:07:17.511217 124783 net.cpp:368] fc6 -> fc6
I1029 21:07:17.511229 124783 net.cpp:120] Setting up fc6
I1029 21:07:17.812325 124783 net.cpp:127] Top shape: 10 4096 (40960)
I1029 21:07:17.812367 124783 layer_factory.hpp:74] Creating layer relu6
I1029 21:07:17.812383 124783 net.cpp:90] Creating Layer relu6
I1029 21:07:17.812391 124783 net.cpp:410] relu6 <- fc6
I1029 21:07:17.812407 124783 net.cpp:357] relu6 -> fc6 (in-place)
I1029 21:07:17.812419 124783 net.cpp:120] Setting up relu6
I1029 21:07:17.812862 124783 net.cpp:127] Top shape: 10 4096 (40960)
I1029 21:07:17.812873 124783 layer_factory.hpp:74] Creating layer drop6
I1029 21:07:17.812883 124783 net.cpp:90] Creating Layer drop6
I1029 21:07:17.812888 124783 net.cpp:410] drop6 <- fc6
I1029 21:07:17.812897 124783 net.cpp:357] drop6 -> fc6 (in-place)
I1029 21:07:17.812906 124783 net.cpp:120] Setting up drop6
I1029 21:07:17.812916 124783 net.cpp:127] Top shape: 10 4096 (40960)
I1029 21:07:17.812922 124783 layer_factory.hpp:74] Creating layer fc7
I1029 21:07:17.812944 124783 net.cpp:90] Creating Layer fc7
I1029 21:07:17.812948 124783 net.cpp:410] fc7 <- fc6
I1029 21:07:17.812958 124783 net.cpp:368] fc7 -> fc7
I1029 21:07:17.812968 124783 net.cpp:120] Setting up fc7
I1029 21:07:17.861261 124783 net.cpp:127] Top shape: 10 4096 (40960)
I1029 21:07:17.861299 124783 layer_factory.hpp:74] Creating layer relu7
I1029 21:07:17.861315 124783 net.cpp:90] Creating Layer relu7
I1029 21:07:17.861322 124783 net.cpp:410] relu7 <- fc7
I1029 21:07:17.861335 124783 net.cpp:357] relu7 -> fc7 (in-place)
I1029 21:07:17.861346 124783 net.cpp:120] Setting up relu7
I1029 21:07:17.861491 124783 net.cpp:127] Top shape: 10 4096 (40960)
I1029 21:07:17.861500 124783 layer_factory.hpp:74] Creating layer drop7
I1029 21:07:17.861511 124783 net.cpp:90] Creating Layer drop7
I1029 21:07:17.861516 124783 net.cpp:410] drop7 <- fc7
I1029 21:07:17.861523 124783 net.cpp:357] drop7 -> fc7 (in-place)
I1029 21:07:17.861531 124783 net.cpp:120] Setting up drop7
I1029 21:07:17.861541 124783 net.cpp:127] Top shape: 10 4096 (40960)
I1029 21:07:17.861546 124783 layer_factory.hpp:74] Creating layer fc8-101
I1029 21:07:17.861559 124783 net.cpp:90] Creating Layer fc8-101
I1029 21:07:17.861563 124783 net.cpp:410] fc8-101 <- fc7
I1029 21:07:17.861570 124783 net.cpp:368] fc8-101 -> fc8-101
I1029 21:07:17.861582 124783 net.cpp:120] Setting up fc8-101
I1029 21:07:17.871264 124783 net.cpp:127] Top shape: 10 101 (1010)
I1029 21:07:17.871278 124783 layer_factory.hpp:74] Creating layer fc8-101_fc8-101_0_split
I1029 21:07:17.871287 124783 net.cpp:90] Creating Layer fc8-101_fc8-101_0_split
I1029 21:07:17.871291 124783 net.cpp:410] fc8-101_fc8-101_0_split <- fc8-101
I1029 21:07:17.871300 124783 net.cpp:368] fc8-101_fc8-101_0_split -> fc8-101_fc8-101_0_split_0
I1029 21:07:17.871309 124783 net.cpp:368] fc8-101_fc8-101_0_split -> fc8-101_fc8-101_0_split_1
I1029 21:07:17.871316 124783 net.cpp:368] fc8-101_fc8-101_0_split -> fc8-101_fc8-101_0_split_2
I1029 21:07:17.871323 124783 net.cpp:368] fc8-101_fc8-101_0_split -> fc8-101_fc8-101_0_split_3
I1029 21:07:17.871330 124783 net.cpp:120] Setting up fc8-101_fc8-101_0_split
I1029 21:07:17.871346 124783 net.cpp:127] Top shape: 10 101 (1010)
I1029 21:07:17.871351 124783 net.cpp:127] Top shape: 10 101 (1010)
I1029 21:07:17.871356 124783 net.cpp:127] Top shape: 10 101 (1010)
I1029 21:07:17.871361 124783 net.cpp:127] Top shape: 10 101 (1010)
I1029 21:07:17.871364 124783 layer_factory.hpp:74] Creating layer prob
I1029 21:07:17.871372 124783 net.cpp:90] Creating Layer prob
I1029 21:07:17.871376 124783 net.cpp:410] prob <- fc8-101_fc8-101_0_split_0
I1029 21:07:17.871384 124783 net.cpp:368] prob -> prob
I1029 21:07:17.871392 124783 net.cpp:120] Setting up prob
I1029 21:07:17.871481 124783 net.cpp:127] Top shape: 10 101 (1010)
I1029 21:07:17.871490 124783 layer_factory.hpp:74] Creating layer accuracy_train_top01
I1029 21:07:17.871505 124783 net.cpp:90] Creating Layer accuracy_train_top01
I1029 21:07:17.871511 124783 net.cpp:410] accuracy_train_top01 <- fc8-101_fc8-101_0_split_1
I1029 21:07:17.871517 124783 net.cpp:410] accuracy_train_top01 <- label_data_1_split_0
I1029 21:07:17.871526 124783 net.cpp:368] accuracy_train_top01 -> accuracy_train_top01
…
