…
I0712 16:00:17.371659 26563 net.cpp:51] Initializing net from parameters: 
name: "VGG_ILSVRC_16_layers"
state {
  phase: TRAIN
  level: 0
  stage: ""
}
layer {
  name: "data"
  type: "ImageData"
  top: "data"
  top: "label"
  include {
    phase: TRAIN
  }
  transform_param {
    mirror: true
    crop_size: 224
    mean_file: "/srv/glusterfs/hmahdi/IMDB/models/imagenet_mean.binaryproto"
  }
  image_data_param {
    source: "/srv/glusterfs/hmahdi/IMDB/morph_target/morph_matched_training_set.txt"
    batch_size: 5
    new_height: 256
    new_width: 256
  }
}
layer {
  name: "conv1_1"
  type: "Convolution"
  bottom: "data"
  top: "conv1_1"
  param {
    lr_mult: 1
    decay_mult: 1
  }
  param {
    lr_mult: 2
    decay_mult: 0
  }
  convolution_param {
    num_output: 64
    pad: 1
    kernel_size: 3
  }
}
layer {
  name: "relu1_1"
  type: "ReLU"
  bottom: "conv1_1"
  top: "conv1_1"
}
layer {
  name: "conv1_2"
  type: "Convolution"
  bottom: "conv1_1"
  top: "conv1_2"
  param {
    lr_mult: 1
    decay_mult: 1
  }
  param {
    lr_mult: 2
    decay_mult: 0
  }
  convolution_param {
    num_output: 64
    pad: 1
    kernel_size: 3
  }
}
layer {
  name: "relu1_2"
  type: "ReLU"
  bottom: "conv1_2"
  top: "conv1_2"
}
layer {
  name: "pool1"
  type: "Pooling"
  bottom: "conv1_2"
  top: "pool1"
  pooling_param {
    pool: MAX
    kernel_size: 2
    stride: 2
  }
}
layer {
  name: "conv2_1"
  type: "Convolution"
  bottom: "pool1"
  top: "conv2_1"
  param {
    lr_mult: 1
    decay_mult: 1
  }
  param {
    lr_mult: 2
    decay_mult: 0
  }
  convolution_param {
    num_output: 128
    pad: 1
    kernel_size: 3
  }
}
layer {
  name: "relu2_1"
  type: "ReLU"
  bottom: "conv2_1"
  top: "conv2_1"
}
layer {
  name: "conv2_2"
  type: "Convolution"
  bottom: "conv2_1"
  top: "conv2_2"
  param {
    lr_mult: 1
    decay_mult: 1
  }
  param {
    lr_mult: 2
    decay_mult: 0
  }
  convolution_param {
    num_output: 128
    pad: 1
    kernel_size: 3
  }
}
layer {
  name: "relu2_2"
  type: "ReLU"
  bottom: "conv2_2"
  top: "conv2_2"
}
layer {
  name: "pool2"
  type: "Pooling"
  bottom: "conv2_2"
  top: "pool2"
  pooling_param {
    pool: MAX
    kernel_size: 2
    stride: 2
  }
}
layer {
  name: "conv3_1"
  type: "Convolution"
  bottom: "pool2"
  top: "conv3_1"
  param {
    lr_mult: 1
    decay_mult: 1
  }
  param {
    lr_mult: 2
    decay_mult: 0
  }
  convolution_param {
    num_output: 256
    pad: 1
    kernel_size: 3
  }
}
layer {
  name: "relu3_1"
  type: "ReLU"
  bottom: "conv3_1"
  top: "conv3_1"
}
layer {
  name: "conv3_2"
  type: "Convolution"
  bottom: "conv3_1"
  top: "conv3_2"
  param {
    lr_mult: 1
    decay_mult: 1
  }
  param {
    lr_mult: 2
    decay_mult: 0
  }
  convolution_param {
    num_output: 256
    pad: 1
    kernel_size: 3
  }
}
layer {
  name: "relu3_2"
  type: "ReLU"
  bottom: "conv3_2"
  top: "conv3_2"
}
layer {
  name: "conv3_3"
  type: "Convolution"
  bottom: "conv3_2"
  top: "conv3_3"
  param {
    lr_mult: 1
    decay_mult: 1
  }
  param {
    lr_mult: 2
    decay_mult: 0
  }
  convolution_param {
    num_output: 256
    pad: 1
    kernel_size: 3
  }
}
layer {
  name: "relu3_3"
  type: "ReLU"
  bottom: "conv3_3"
  top: "conv3_3"
}
layer {
  name: "pool3"
  type: "Pooling"
  bottom: "conv3_3"
  top: "pool3"
  pooling_param {
    pool: MAX
    kernel_size: 2
    stride: 2
  }
}
layer {
  name: "conv4_1"
  type: "Convolution"
  bottom: "pool3"
  top: "conv4_1"
  param {
    lr_mult: 1
    decay_mult: 1
  }
  param {
    lr_mult: 2
    decay_mult: 0
  }
  convolution_param {
    num_output: 512
    pad: 1
    kernel_size: 3
  }
}
layer {
  name: "relu4_1"
  type: "ReLU"
  bottom: "conv4_1"
  top: "conv4_1"
}
layer {
  name: "conv4_2"
  type: "Convolution"
  bottom: "conv4_1"
  top: "conv4_2"
  param {
    lr_mult: 1
    decay_mult: 1
  }
  param {
    lr_mult: 2
    decay_mult: 0
  }
  convolution_param {
    num_output: 512
    pad: 1
    kernel_size: 3
  }
}
layer {
  name: "relu4_2"
  type: "ReLU"
  bottom: "conv4_2"
  top: "conv4_2"
}
layer {
  name: "conv4_3"
  type: "Convolution"
  bottom: "conv4_2"
  top: "conv4_3"
  param {
    lr_mult: 1
    decay_mult: 1
  }
  param {
    lr_mult: 2
    decay_mult: 0
  }
  convolution_param {
    num_output: 512
    pad: 1
    kernel_size: 3
  }
}
layer {
  name: "relu4_3"
  type: "ReLU"
  bottom: "conv4_3"
  top: "conv4_3"
}
layer {
  name: "pool4"
  type: "Pooling"
  bottom: "conv4_3"
  top: "pool4"
  pooling_param {
    pool: MAX
    kernel_size: 2
    stride: 2
  }
}
layer {
  name: "conv5_1"
  type: "Convolution"
  bottom: "pool4"
  top: "conv5_1"
  param {
    lr_mult: 1
    decay_mult: 1
  }
  param {
    lr_mult: 2
    decay_mult: 0
  }
  convolution_param {
    num_output: 512
    pad: 1
    kernel_size: 3
  }
}
layer {
  name: "relu5_1"
  type: "ReLU"
  bottom: "conv5_1"
  top: "conv5_1"
}
layer {
  name: "conv5_2"
  type: "Convolution"
  bottom: "conv5_1"
  top: "conv5_2"
  param {
    lr_mult: 1
    decay_mult: 1
  }
  param {
    lr_mult: 2
    decay_mult: 0
  }
  convolution_param {
    num_output: 512
    pad: 1
    kernel_size: 3
  }
}
layer {
  name: "relu5_2"
  type: "ReLU"
  bottom: "conv5_2"
  top: "conv5_2"
}
layer {
  name: "conv5_3"
  type: "Convolution"
  bottom: "conv5_2"
  top: "conv5_3"
  param {
    lr_mult: 1
    decay_mult: 1
  }
  param {
    lr_mult: 2
    decay_mult: 0
  }
  convolution_param {
    num_output: 512
    pad: 1
    kernel_size: 3
  }
}
layer {
  name: "relu5_3"
  type: "ReLU"
  bottom: "conv5_3"
  top: "conv5_3"
}
layer {
  name: "pool5"
  type: "Pooling"
  bottom: "conv5_3"
  top: "pool5"
  pooling_param {
    pool: MAX
    kernel_size: 2
    stride: 2
  }
}
layer {
  name: "fc6"
  type: "InnerProduct"
  bottom: "pool5"
  top: "fc6"
  param {
    lr_mult: 10
    decay_mult: 1
  }
  param {
    lr_mult: 20
    decay_mult: 0
  }
  inner_product_param {
    num_output: 4096
  }
}
layer {
  name: "relu6"
  type: "ReLU"
  bottom: "fc6"
  top: "fc6"
}
layer {
  name: "drop6"
  type: "Dropout"
  bottom: "fc6"
  top: "fc6"
  dropout_param {
    dropout_ratio: 0.5
  }
}
layer {
  name: "fc7"
  type: "InnerProduct"
  bottom: "fc6"
  top: "fc7"
  param {
    lr_mult: 10
    decay_mult: 1
  }
  param {
    lr_mult: 20
    decay_mult: 0
  }
  inner_product_param {
    num_output: 4096
  }
}
layer {
  name: "relu7"
  type: "ReLU"
  bottom: "fc7"
  top: "fc7"
}
layer {
  name: "drop7"
  type: "Dropout"
  bottom: "fc7"
  top: "fc7"
  dropout_param {
    dropout_ratio: 0.5
  }
}
layer {
  name: "fc8-101"
  type: "InnerProduct"
  bottom: "fc7"
  top: "fc8-101"
  param {
    lr_mult: 10
    decay_mult: 1
  }
  param {
    lr_mult: 20
    decay_mult: 0
  }
  inner_product_param {
    num_output: 101
    weight_filler {
      type: "gaussian"
      std: 0.01
    }
    bias_filler {
      type: "constant"
      value: 0
    }
  }
}
layer {
  name: "loss"
  type: "SoftmaxWithLoss"
  bottom: "fc8-101"
  bottom: "label"
  include {
    phase: TRAIN
  }
}
I0712 16:00:17.371932 26563 layer_factory.hpp:77] Creating layer data
I0712 16:00:17.371984 26563 net.cpp:84] Creating Layer data
I0712 16:00:17.372000 26563 net.cpp:380] data -> data
I0712 16:00:17.372035 26563 net.cpp:380] data -> label
I0712 16:00:17.372059 26563 data_transformer.cpp:25] Loading mean file from: /srv/glusterfs/hmahdi/IMDB/models/imagenet_mean.binaryproto
I0712 16:00:17.379712 26563 image_data_layer.cpp:38] Opening file /srv/glusterfs/hmahdi/IMDB/morph_target/morph_matched_training_set.txt
I0712 16:00:19.530644 26563 image_data_layer.cpp:63] A total of 1473870 images.
I0712 16:00:19.590469 26563 image_data_layer.cpp:90] output data size: 5,3,224,224
I0712 16:00:19.607267 26563 net.cpp:122] Setting up data
I0712 16:00:19.607333 26563 net.cpp:129] Top shape: 5 3 224 224 (752640)
I0712 16:00:19.607349 26563 net.cpp:129] Top shape: 5 (5)
I0712 16:00:19.607358 26563 net.cpp:137] Memory required for data: 3010580
I0712 16:00:19.607375 26563 layer_factory.hpp:77] Creating layer conv1_1
I0712 16:00:19.607415 26563 net.cpp:84] Creating Layer conv1_1
I0712 16:00:19.607430 26563 net.cpp:406] conv1_1 <- data
I0712 16:00:19.607461 26563 net.cpp:380] conv1_1 -> conv1_1
I0712 16:00:20.727603 26563 net.cpp:122] Setting up conv1_1
I0712 16:00:20.727668 26563 net.cpp:129] Top shape: 5 64 224 224 (16056320)
I0712 16:00:20.727676 26563 net.cpp:137] Memory required for data: 67235860
I0712 16:00:20.727712 26563 layer_factory.hpp:77] Creating layer relu1_1
I0712 16:00:20.727737 26563 net.cpp:84] Creating Layer relu1_1
I0712 16:00:20.727748 26563 net.cpp:406] relu1_1 <- conv1_1
I0712 16:00:20.727761 26563 net.cpp:367] relu1_1 -> conv1_1 (in-place)
I0712 16:00:20.728938 26563 net.cpp:122] Setting up relu1_1
I0712 16:00:20.728962 26563 net.cpp:129] Top shape: 5 64 224 224 (16056320)
I0712 16:00:20.728971 26563 net.cpp:137] Memory required for data: 131461140
I0712 16:00:20.728979 26563 layer_factory.hpp:77] Creating layer conv1_2
I0712 16:00:20.729001 26563 net.cpp:84] Creating Layer conv1_2
I0712 16:00:20.729008 26563 net.cpp:406] conv1_2 <- conv1_1
I0712 16:00:20.729022 26563 net.cpp:380] conv1_2 -> conv1_2
I0712 16:00:20.732939 26563 net.cpp:122] Setting up conv1_2
I0712 16:00:20.732961 26563 net.cpp:129] Top shape: 5 64 224 224 (16056320)
I0712 16:00:20.732969 26563 net.cpp:137] Memory required for data: 195686420
I0712 16:00:20.732987 26563 layer_factory.hpp:77] Creating layer relu1_2
I0712 16:00:20.733001 26563 net.cpp:84] Creating Layer relu1_2
I0712 16:00:20.733011 26563 net.cpp:406] relu1_2 <- conv1_2
I0712 16:00:20.733021 26563 net.cpp:367] relu1_2 -> conv1_2 (in-place)
I0712 16:00:20.733296 26563 net.cpp:122] Setting up relu1_2
I0712 16:00:20.733314 26563 net.cpp:129] Top shape: 5 64 224 224 (16056320)
I0712 16:00:20.733322 26563 net.cpp:137] Memory required for data: 259911700
I0712 16:00:20.733330 26563 layer_factory.hpp:77] Creating layer pool1
I0712 16:00:20.733343 26563 net.cpp:84] Creating Layer pool1
I0712 16:00:20.733359 26563 net.cpp:406] pool1 <- conv1_2
I0712 16:00:20.733371 26563 net.cpp:380] pool1 -> pool1
I0712 16:00:20.733456 26563 net.cpp:122] Setting up pool1
I0712 16:00:20.733517 26563 net.cpp:129] Top shape: 5 64 112 112 (4014080)
I0712 16:00:20.733525 26563 net.cpp:137] Memory required for data: 275968020
I0712 16:00:20.733533 26563 layer_factory.hpp:77] Creating layer conv2_1
I0712 16:00:20.733549 26563 net.cpp:84] Creating Layer conv2_1
I0712 16:00:20.733557 26563 net.cpp:406] conv2_1 <- pool1
I0712 16:00:20.733568 26563 net.cpp:380] conv2_1 -> conv2_1
I0712 16:00:20.739048 26563 net.cpp:122] Setting up conv2_1
I0712 16:00:20.739073 26563 net.cpp:129] Top shape: 5 128 112 112 (8028160)
I0712 16:00:20.739080 26563 net.cpp:137] Memory required for data: 308080660
I0712 16:00:20.739099 26563 layer_factory.hpp:77] Creating layer relu2_1
I0712 16:00:20.739111 26563 net.cpp:84] Creating Layer relu2_1
I0712 16:00:20.739120 26563 net.cpp:406] relu2_1 <- conv2_1
I0712 16:00:20.739130 26563 net.cpp:367] relu2_1 -> conv2_1 (in-place)
I0712 16:00:20.740236 26563 net.cpp:122] Setting up relu2_1
I0712 16:00:20.740257 26563 net.cpp:129] Top shape: 5 128 112 112 (8028160)
I0712 16:00:20.740264 26563 net.cpp:137] Memory required for data: 340193300
I0712 16:00:20.740273 26563 layer_factory.hpp:77] Creating layer conv2_2
I0712 16:00:20.740291 26563 net.cpp:84] Creating Layer conv2_2
I0712 16:00:20.740300 26563 net.cpp:406] conv2_2 <- conv2_1
I0712 16:00:20.740314 26563 net.cpp:380] conv2_2 -> conv2_2
I0712 16:00:20.743355 26563 net.cpp:122] Setting up conv2_2
I0712 16:00:20.743378 26563 net.cpp:129] Top shape: 5 128 112 112 (8028160)
I0712 16:00:20.743386 26563 net.cpp:137] Memory required for data: 372305940
I0712 16:00:20.743401 26563 layer_factory.hpp:77] Creating layer relu2_2
I0712 16:00:20.743414 26563 net.cpp:84] Creating Layer relu2_2
I0712 16:00:20.743422 26563 net.cpp:406] relu2_2 <- conv2_2
I0712 16:00:20.743432 26563 net.cpp:367] relu2_2 -> conv2_2 (in-place)
I0712 16:00:20.744530 26563 net.cpp:122] Setting up relu2_2
I0712 16:00:20.744552 26563 net.cpp:129] Top shape: 5 128 112 112 (8028160)
I0712 16:00:20.744560 26563 net.cpp:137] Memory required for data: 404418580
I0712 16:00:20.744568 26563 layer_factory.hpp:77] Creating layer pool2
I0712 16:00:20.744582 26563 net.cpp:84] Creating Layer pool2
I0712 16:00:20.744590 26563 net.cpp:406] pool2 <- conv2_2
I0712 16:00:20.744601 26563 net.cpp:380] pool2 -> pool2
I0712 16:00:20.744671 26563 net.cpp:122] Setting up pool2
I0712 16:00:20.744686 26563 net.cpp:129] Top shape: 5 128 56 56 (2007040)
I0712 16:00:20.744693 26563 net.cpp:137] Memory required for data: 412446740
I0712 16:00:20.744701 26563 layer_factory.hpp:77] Creating layer conv3_1
I0712 16:00:20.744716 26563 net.cpp:84] Creating Layer conv3_1
I0712 16:00:20.744724 26563 net.cpp:406] conv3_1 <- pool2
I0712 16:00:20.744765 26563 net.cpp:380] conv3_1 -> conv3_1
I0712 16:00:20.749534 26563 net.cpp:122] Setting up conv3_1
I0712 16:00:20.749557 26563 net.cpp:129] Top shape: 5 256 56 56 (4014080)
I0712 16:00:20.749564 26563 net.cpp:137] Memory required for data: 428503060
I0712 16:00:20.749583 26563 layer_factory.hpp:77] Creating layer relu3_1
I0712 16:00:20.749595 26563 net.cpp:84] Creating Layer relu3_1
I0712 16:00:20.749603 26563 net.cpp:406] relu3_1 <- conv3_1
I0712 16:00:20.749614 26563 net.cpp:367] relu3_1 -> conv3_1 (in-place)
I0712 16:00:20.749877 26563 net.cpp:122] Setting up relu3_1
I0712 16:00:20.749897 26563 net.cpp:129] Top shape: 5 256 56 56 (4014080)
I0712 16:00:20.749904 26563 net.cpp:137] Memory required for data: 444559380
I0712 16:00:20.749912 26563 layer_factory.hpp:77] Creating layer conv3_2
I0712 16:00:20.749927 26563 net.cpp:84] Creating Layer conv3_2
I0712 16:00:20.749934 26563 net.cpp:406] conv3_2 <- conv3_1
I0712 16:00:20.749946 26563 net.cpp:380] conv3_2 -> conv3_2
I0712 16:00:20.755520 26563 net.cpp:122] Setting up conv3_2
I0712 16:00:20.755547 26563 net.cpp:129] Top shape: 5 256 56 56 (4014080)
I0712 16:00:20.755553 26563 net.cpp:137] Memory required for data: 460615700
I0712 16:00:20.755573 26563 layer_factory.hpp:77] Creating layer relu3_2
I0712 16:00:20.755586 26563 net.cpp:84] Creating Layer relu3_2
I0712 16:00:20.755616 26563 net.cpp:406] relu3_2 <- conv3_2
I0712 16:00:20.755630 26563 net.cpp:367] relu3_2 -> conv3_2 (in-place)
I0712 16:00:20.756709 26563 net.cpp:122] Setting up relu3_2
I0712 16:00:20.756731 26563 net.cpp:129] Top shape: 5 256 56 56 (4014080)
I0712 16:00:20.756737 26563 net.cpp:137] Memory required for data: 476672020
I0712 16:00:20.756745 26563 layer_factory.hpp:77] Creating layer conv3_3
I0712 16:00:20.756765 26563 net.cpp:84] Creating Layer conv3_3
I0712 16:00:20.756773 26563 net.cpp:406] conv3_3 <- conv3_2
I0712 16:00:20.756793 26563 net.cpp:380] conv3_3 -> conv3_3
I0712 16:00:20.761843 26563 net.cpp:122] Setting up conv3_3
I0712 16:00:20.761868 26563 net.cpp:129] Top shape: 5 256 56 56 (4014080)
I0712 16:00:20.761875 26563 net.cpp:137] Memory required for data: 492728340
I0712 16:00:20.761888 26563 layer_factory.hpp:77] Creating layer relu3_3
I0712 16:00:20.761904 26563 net.cpp:84] Creating Layer relu3_3
I0712 16:00:20.761910 26563 net.cpp:406] relu3_3 <- conv3_3
I0712 16:00:20.761921 26563 net.cpp:367] relu3_3 -> conv3_3 (in-place)
I0712 16:00:20.762953 26563 net.cpp:122] Setting up relu3_3
I0712 16:00:20.762974 26563 net.cpp:129] Top shape: 5 256 56 56 (4014080)
I0712 16:00:20.762982 26563 net.cpp:137] Memory required for data: 508784660
I0712 16:00:20.762989 26563 layer_factory.hpp:77] Creating layer pool3
I0712 16:00:20.763001 26563 net.cpp:84] Creating Layer pool3
I0712 16:00:20.763010 26563 net.cpp:406] pool3 <- conv3_3
I0712 16:00:20.763018 26563 net.cpp:380] pool3 -> pool3
I0712 16:00:20.763090 26563 net.cpp:122] Setting up pool3
I0712 16:00:20.763104 26563 net.cpp:129] Top shape: 5 256 28 28 (1003520)
I0712 16:00:20.763110 26563 net.cpp:137] Memory required for data: 512798740
I0712 16:00:20.763118 26563 layer_factory.hpp:77] Creating layer conv4_1
I0712 16:00:20.763134 26563 net.cpp:84] Creating Layer conv4_1
I0712 16:00:20.763140 26563 net.cpp:406] conv4_1 <- pool3
I0712 16:00:20.763154 26563 net.cpp:380] conv4_1 -> conv4_1
I0712 16:00:20.771770 26563 net.cpp:122] Setting up conv4_1
I0712 16:00:20.771792 26563 net.cpp:129] Top shape: 5 512 28 28 (2007040)
I0712 16:00:20.771800 26563 net.cpp:137] Memory required for data: 520826900
I0712 16:00:20.771812 26563 layer_factory.hpp:77] Creating layer relu4_1
I0712 16:00:20.771826 26563 net.cpp:84] Creating Layer relu4_1
I0712 16:00:20.771834 26563 net.cpp:406] relu4_1 <- conv4_1
I0712 16:00:20.771845 26563 net.cpp:367] relu4_1 -> conv4_1 (in-place)
I0712 16:00:20.772114 26563 net.cpp:122] Setting up relu4_1
I0712 16:00:20.772132 26563 net.cpp:129] Top shape: 5 512 28 28 (2007040)
I0712 16:00:20.772138 26563 net.cpp:137] Memory required for data: 528855060
I0712 16:00:20.772145 26563 layer_factory.hpp:77] Creating layer conv4_2
I0712 16:00:20.772161 26563 net.cpp:84] Creating Layer conv4_2
I0712 16:00:20.772168 26563 net.cpp:406] conv4_2 <- conv4_1
I0712 16:00:20.772179 26563 net.cpp:380] conv4_2 -> conv4_2
I0712 16:00:20.781826 26563 net.cpp:122] Setting up conv4_2
I0712 16:00:20.781862 26563 net.cpp:129] Top shape: 5 512 28 28 (2007040)
I0712 16:00:20.781868 26563 net.cpp:137] Memory required for data: 536883220
I0712 16:00:20.781888 26563 layer_factory.hpp:77] Creating layer relu4_2
I0712 16:00:20.781904 26563 net.cpp:84] Creating Layer relu4_2
I0712 16:00:20.781911 26563 net.cpp:406] relu4_2 <- conv4_2
I0712 16:00:20.781921 26563 net.cpp:367] relu4_2 -> conv4_2 (in-place)
I0712 16:00:20.782887 26563 net.cpp:122] Setting up relu4_2
I0712 16:00:20.782905 26563 net.cpp:129] Top shape: 5 512 28 28 (2007040)
I0712 16:00:20.782912 26563 net.cpp:137] Memory required for data: 544911380
I0712 16:00:20.782919 26563 layer_factory.hpp:77] Creating layer conv4_3
I0712 16:00:20.782935 26563 net.cpp:84] Creating Layer conv4_3
I0712 16:00:20.782943 26563 net.cpp:406] conv4_3 <- conv4_2
I0712 16:00:20.782955 26563 net.cpp:380] conv4_3 -> conv4_3
I0712 16:00:20.791921 26563 net.cpp:122] Setting up conv4_3
I0712 16:00:20.791963 26563 net.cpp:129] Top shape: 5 512 28 28 (2007040)
I0712 16:00:20.791971 26563 net.cpp:137] Memory required for data: 552939540
I0712 16:00:20.792017 26563 layer_factory.hpp:77] Creating layer relu4_3
I0712 16:00:20.792032 26563 net.cpp:84] Creating Layer relu4_3
I0712 16:00:20.792040 26563 net.cpp:406] relu4_3 <- conv4_3
I0712 16:00:20.792052 26563 net.cpp:367] relu4_3 -> conv4_3 (in-place)
I0712 16:00:20.794543 26563 net.cpp:122] Setting up relu4_3
I0712 16:00:20.794569 26563 net.cpp:129] Top shape: 5 512 28 28 (2007040)
I0712 16:00:20.794575 26563 net.cpp:137] Memory required for data: 560967700
I0712 16:00:20.794582 26563 layer_factory.hpp:77] Creating layer pool4
I0712 16:00:20.794595 26563 net.cpp:84] Creating Layer pool4
I0712 16:00:20.794601 26563 net.cpp:406] pool4 <- conv4_3
I0712 16:00:20.794612 26563 net.cpp:380] pool4 -> pool4
I0712 16:00:20.794682 26563 net.cpp:122] Setting up pool4
I0712 16:00:20.794693 26563 net.cpp:129] Top shape: 5 512 14 14 (501760)
I0712 16:00:20.794698 26563 net.cpp:137] Memory required for data: 562974740
I0712 16:00:20.794704 26563 layer_factory.hpp:77] Creating layer conv5_1
I0712 16:00:20.794720 26563 net.cpp:84] Creating Layer conv5_1
I0712 16:00:20.794728 26563 net.cpp:406] conv5_1 <- pool4
I0712 16:00:20.794739 26563 net.cpp:380] conv5_1 -> conv5_1
I0712 16:00:20.804467 26563 net.cpp:122] Setting up conv5_1
I0712 16:00:20.804500 26563 net.cpp:129] Top shape: 5 512 14 14 (501760)
I0712 16:00:20.804507 26563 net.cpp:137] Memory required for data: 564981780
I0712 16:00:20.804519 26563 layer_factory.hpp:77] Creating layer relu5_1
I0712 16:00:20.804533 26563 net.cpp:84] Creating Layer relu5_1
I0712 16:00:20.804540 26563 net.cpp:406] relu5_1 <- conv5_1
I0712 16:00:20.804553 26563 net.cpp:367] relu5_1 -> conv5_1 (in-place)
I0712 16:00:20.804805 26563 net.cpp:122] Setting up relu5_1
I0712 16:00:20.804831 26563 net.cpp:129] Top shape: 5 512 14 14 (501760)
I0712 16:00:20.804836 26563 net.cpp:137] Memory required for data: 566988820
I0712 16:00:20.804857 26563 layer_factory.hpp:77] Creating layer conv5_2
I0712 16:00:20.804872 26563 net.cpp:84] Creating Layer conv5_2
I0712 16:00:20.804879 26563 net.cpp:406] conv5_2 <- conv5_1
I0712 16:00:20.804891 26563 net.cpp:380] conv5_2 -> conv5_2
I0712 16:00:20.813642 26563 net.cpp:122] Setting up conv5_2
I0712 16:00:20.813673 26563 net.cpp:129] Top shape: 5 512 14 14 (501760)
I0712 16:00:20.813679 26563 net.cpp:137] Memory required for data: 568995860
I0712 16:00:20.813691 26563 layer_factory.hpp:77] Creating layer relu5_2
I0712 16:00:20.813706 26563 net.cpp:84] Creating Layer relu5_2
I0712 16:00:20.813714 26563 net.cpp:406] relu5_2 <- conv5_2
I0712 16:00:20.813724 26563 net.cpp:367] relu5_2 -> conv5_2 (in-place)
I0712 16:00:20.814640 26563 net.cpp:122] Setting up relu5_2
I0712 16:00:20.814656 26563 net.cpp:129] Top shape: 5 512 14 14 (501760)
I0712 16:00:20.814661 26563 net.cpp:137] Memory required for data: 571002900
I0712 16:00:20.814667 26563 layer_factory.hpp:77] Creating layer conv5_3
I0712 16:00:20.814683 26563 net.cpp:84] Creating Layer conv5_3
I0712 16:00:20.814690 26563 net.cpp:406] conv5_3 <- conv5_2
I0712 16:00:20.814702 26563 net.cpp:380] conv5_3 -> conv5_3
I0712 16:00:20.822859 26563 net.cpp:122] Setting up conv5_3
I0712 16:00:20.822888 26563 net.cpp:129] Top shape: 5 512 14 14 (501760)
I0712 16:00:20.822895 26563 net.cpp:137] Memory required for data: 573009940
I0712 16:00:20.822906 26563 layer_factory.hpp:77] Creating layer relu5_3
I0712 16:00:20.822919 26563 net.cpp:84] Creating Layer relu5_3
I0712 16:00:20.822926 26563 net.cpp:406] relu5_3 <- conv5_3
I0712 16:00:20.822935 26563 net.cpp:367] relu5_3 -> conv5_3 (in-place)
I0712 16:00:20.823807 26563 net.cpp:122] Setting up relu5_3
I0712 16:00:20.823824 26563 net.cpp:129] Top shape: 5 512 14 14 (501760)
I0712 16:00:20.823830 26563 net.cpp:137] Memory required for data: 575016980
I0712 16:00:20.823837 26563 layer_factory.hpp:77] Creating layer pool5
I0712 16:00:20.823848 26563 net.cpp:84] Creating Layer pool5
I0712 16:00:20.823853 26563 net.cpp:406] pool5 <- conv5_3
I0712 16:00:20.823868 26563 net.cpp:380] pool5 -> pool5
I0712 16:00:20.823938 26563 net.cpp:122] Setting up pool5
I0712 16:00:20.823949 26563 net.cpp:129] Top shape: 5 512 7 7 (125440)
I0712 16:00:20.823988 26563 net.cpp:137] Memory required for data: 575518740
I0712 16:00:20.823995 26563 layer_factory.hpp:77] Creating layer fc6
I0712 16:00:20.824015 26563 net.cpp:84] Creating Layer fc6
I0712 16:00:20.824021 26563 net.cpp:406] fc6 <- pool5
I0712 16:00:20.824033 26563 net.cpp:380] fc6 -> fc6
I0712 16:00:21.063748 26563 net.cpp:122] Setting up fc6
I0712 16:00:21.063797 26563 net.cpp:129] Top shape: 5 4096 (20480)
I0712 16:00:21.063802 26563 net.cpp:137] Memory required for data: 575600660
I0712 16:00:21.063817 26563 layer_factory.hpp:77] Creating layer relu6
I0712 16:00:21.063833 26563 net.cpp:84] Creating Layer relu6
I0712 16:00:21.063838 26563 net.cpp:406] relu6 <- fc6
I0712 16:00:21.063851 26563 net.cpp:367] relu6 -> fc6 (in-place)
I0712 16:00:21.064744 26563 net.cpp:122] Setting up relu6
I0712 16:00:21.064756 26563 net.cpp:129] Top shape: 5 4096 (20480)
I0712 16:00:21.064760 26563 net.cpp:137] Memory required for data: 575682580
I0712 16:00:21.064765 26563 layer_factory.hpp:77] Creating layer drop6
I0712 16:00:21.064774 26563 net.cpp:84] Creating Layer drop6
I0712 16:00:21.064779 26563 net.cpp:406] drop6 <- fc6
I0712 16:00:21.064787 26563 net.cpp:367] drop6 -> fc6 (in-place)
I0712 16:00:21.064858 26563 net.cpp:122] Setting up drop6
I0712 16:00:21.064867 26563 net.cpp:129] Top shape: 5 4096 (20480)
I0712 16:00:21.064872 26563 net.cpp:137] Memory required for data: 575764500
I0712 16:00:21.064875 26563 layer_factory.hpp:77] Creating layer fc7
I0712 16:00:21.064888 26563 net.cpp:84] Creating Layer fc7
I0712 16:00:21.064891 26563 net.cpp:406] fc7 <- fc6
I0712 16:00:21.064898 26563 net.cpp:380] fc7 -> fc7
I0712 16:00:21.105610 26563 net.cpp:122] Setting up fc7
I0712 16:00:21.105655 26563 net.cpp:129] Top shape: 5 4096 (20480)
I0712 16:00:21.105661 26563 net.cpp:137] Memory required for data: 575846420
I0712 16:00:21.105672 26563 layer_factory.hpp:77] Creating layer relu7
I0712 16:00:21.105687 26563 net.cpp:84] Creating Layer relu7
I0712 16:00:21.105693 26563 net.cpp:406] relu7 <- fc7
I0712 16:00:21.105703 26563 net.cpp:367] relu7 -> fc7 (in-place)
I0712 16:00:21.105944 26563 net.cpp:122] Setting up relu7
I0712 16:00:21.105957 26563 net.cpp:129] Top shape: 5 4096 (20480)
I0712 16:00:21.105962 26563 net.cpp:137] Memory required for data: 575928340
I0712 16:00:21.105965 26563 layer_factory.hpp:77] Creating layer drop7
I0712 16:00:21.105974 26563 net.cpp:84] Creating Layer drop7
I0712 16:00:21.105978 26563 net.cpp:406] drop7 <- fc7
I0712 16:00:21.105984 26563 net.cpp:367] drop7 -> fc7 (in-place)
I0712 16:00:21.106019 26563 net.cpp:122] Setting up drop7
I0712 16:00:21.106026 26563 net.cpp:129] Top shape: 5 4096 (20480)
I0712 16:00:21.106030 26563 net.cpp:137] Memory required for data: 576010260
I0712 16:00:21.106034 26563 layer_factory.hpp:77] Creating layer fc8-101
I0712 16:00:21.106045 26563 net.cpp:84] Creating Layer fc8-101
I0712 16:00:21.106050 26563 net.cpp:406] fc8-101 <- fc7
I0712 16:00:21.106056 26563 net.cpp:380] fc8-101 -> fc8-101
I0712 16:00:21.111179 26563 net.cpp:122] Setting up fc8-101
I0712 16:00:21.111191 26563 net.cpp:129] Top shape: 5 101 (505)
I0712 16:00:21.111196 26563 net.cpp:137] Memory required for data: 576012280
I0712 16:00:21.111203 26563 layer_factory.hpp:77] Creating layer loss
I0712 16:00:21.111224 26563 net.cpp:84] Creating Layer loss
I0712 16:00:21.111229 26563 net.cpp:406] loss <- fc8-101
I0712 16:00:21.111234 26563 net.cpp:406] loss <- label
I0712 16:00:21.111243 26563 net.cpp:380] loss -> (automatic)
I0712 16:00:21.111258 26563 layer_factory.hpp:77] Creating layer loss
…
I0712 16:00:21.121676 26563 net.cpp:51] Initializing net from parameters: 
name: "VGG_ILSVRC_16_layers"
state {
  phase: TEST
  stage: "test-on-train"
}
layer {
  name: "data"
  type: "ImageData"
  top: "data"
  top: "label"
  include {
    phase: TEST
    stage: "test-on-train"
  }
  transform_param {
    mirror: false
    crop_size: 224
    mean_file: "/srv/glusterfs/hmahdi/IMDB/models/imagenet_mean.binaryproto"
  }
  image_data_param {
    source: "/srv/glusterfs/hmahdi/IMDB/morph_target/morph_matched_validation_set.txt"
    batch_size: 5
    new_height: 256
    new_width: 256
  }
}
layer {
  name: "conv1_1"
  type: "Convolution"
  bottom: "data"
  top: "conv1_1"
  param {
    lr_mult: 1
    decay_mult: 1
  }
  param {
    lr_mult: 2
    decay_mult: 0
  }
  convolution_param {
    num_output: 64
    pad: 1
    kernel_size: 3
  }
}
layer {
  name: "relu1_1"
  type: "ReLU"
  bottom: "conv1_1"
  top: "conv1_1"
}
layer {
  name: "conv1_2"
  type: "Convolution"
  bottom: "conv1_1"
  top: "conv1_2"
  param {
    lr_mult: 1
    decay_mult: 1
  }
  param {
    lr_mult: 2
    decay_mult: 0
  }
  convolution_param {
    num_output: 64
    pad: 1
    kernel_size: 3
  }
}
layer {
  name: "relu1_2"
  type: "ReLU"
  bottom: "conv1_2"
  top: "conv1_2"
}
layer {
  name: "pool1"
  type: "Pooling"
  bottom: "conv1_2"
  top: "pool1"
  pooling_param {
    pool: MAX
    kernel_size: 2
    stride: 2
  }
}
layer {
  name: "conv2_1"
  type: "Convolution"
  bottom: "pool1"
  top: "conv2_1"
  param {
    lr_mult: 1
    decay_mult: 1
  }
  param {
    lr_mult: 2
    decay_mult: 0
  }
  convolution_param {
    num_output: 128
    pad: 1
    kernel_size: 3
  }
}
layer {
  name: "relu2_1"
  type: "ReLU"
  bottom: "conv2_1"
  top: "conv2_1"
}
layer {
  name: "conv2_2"
  type: "Convolution"
  bottom: "conv2_1"
  top: "conv2_2"
  param {
    lr_mult: 1
    decay_mult: 1
  }
  param {
    lr_mult: 2
    decay_mult: 0
  }
  convolution_param {
    num_output: 128
    pad: 1
    kernel_size: 3
  }
}
layer {
  name: "relu2_2"
  type: "ReLU"
  bottom: "conv2_2"
  top: "conv2_2"
}
layer {
  name: "pool2"
  type: "Pooling"
  bottom: "conv2_2"
  top: "pool2"
  pooling_param {
    pool: MAX
    kernel_size: 2
    stride: 2
  }
}
layer {
  name: "conv3_1"
  type: "Convolution"
  bottom: "pool2"
  top: "conv3_1"
  param {
    lr_mult: 1
    decay_mult: 1
  }
  param {
    lr_mult: 2
    decay_mult: 0
  }
  convolution_param {
    num_output: 256
    pad: 1
    kernel_size: 3
  }
}
layer {
  name: "relu3_1"
  type: "ReLU"
  bottom: "conv3_1"
  top: "conv3_1"
}
layer {
  name: "conv3_2"
  type: "Convolution"
  bottom: "conv3_1"
  top: "conv3_2"
  param {
    lr_mult: 1
    decay_mult: 1
  }
  param {
    lr_mult: 2
    decay_mult: 0
  }
  convolution_param {
    num_output: 256
    pad: 1
    kernel_size: 3
  }
}
layer {
  name: "relu3_2"
  type: "ReLU"
  bottom: "conv3_2"
  top: "conv3_2"
}
layer {
  name: "conv3_3"
  type: "Convolution"
  bottom: "conv3_2"
  top: "conv3_3"
  param {
    lr_mult: 1
    decay_mult: 1
  }
  param {
    lr_mult: 2
    decay_mult: 0
  }
  convolution_param {
    num_output: 256
    pad: 1
    kernel_size: 3
  }
}
layer {
  name: "relu3_3"
  type: "ReLU"
  bottom: "conv3_3"
  top: "conv3_3"
}
layer {
  name: "pool3"
  type: "Pooling"
  bottom: "conv3_3"
  top: "pool3"
  pooling_param {
    pool: MAX
    kernel_size: 2
    stride: 2
  }
}
layer {
  name: "conv4_1"
  type: "Convolution"
  bottom: "pool3"
  top: "conv4_1"
  param {
    lr_mult: 1
    decay_mult: 1
  }
  param {
    lr_mult: 2
    decay_mult: 0
  }
  convolution_param {
    num_output: 512
    pad: 1
    kernel_size: 3
  }
}
layer {
  name: "relu4_1"
  type: "ReLU"
  bottom: "conv4_1"
  top: "conv4_1"
}
layer {
  name: "conv4_2"
  type: "Convolution"
  bottom: "conv4_1"
  top: "conv4_2"
  param {
    lr_mult: 1
    decay_mult: 1
  }
  param {
    lr_mult: 2
    decay_mult: 0
  }
  convolution_param {
    num_output: 512
    pad: 1
    kernel_size: 3
  }
}
layer {
  name: "relu4_2"
  type: "ReLU"
  bottom: "conv4_2"
  top: "conv4_2"
}
layer {
  name: "conv4_3"
  type: "Convolution"
  bottom: "conv4_2"
  top: "conv4_3"
  param {
    lr_mult: 1
    decay_mult: 1
  }
  param {
    lr_mult: 2
    decay_mult: 0
  }
  convolution_param {
    num_output: 512
    pad: 1
    kernel_size: 3
  }
}
layer {
  name: "relu4_3"
  type: "ReLU"
  bottom: "conv4_3"
  top: "conv4_3"
}
layer {
  name: "pool4"
  type: "Pooling"
  bottom: "conv4_3"
  top: "pool4"
  pooling_param {
    pool: MAX
    kernel_size: 2
    stride: 2
  }
}
layer {
  name: "conv5_1"
  type: "Convolution"
  bottom: "pool4"
  top: "conv5_1"
  param {
    lr_mult: 1
    decay_mult: 1
  }
  param {
    lr_mult: 2
    decay_mult: 0
  }
  convolution_param {
    num_output: 512
    pad: 1
    kernel_size: 3
  }
}
layer {
  name: "relu5_1"
  type: "ReLU"
  bottom: "conv5_1"
  top: "conv5_1"
}
layer {
  name: "conv5_2"
  type: "Convolution"
  bottom: "conv5_1"
  top: "conv5_2"
  param {
    lr_mult: 1
    decay_mult: 1
  }
  param {
    lr_mult: 2
    decay_mult: 0
  }
  convolution_param {
    num_output: 512
    pad: 1
    kernel_size: 3
  }
}
layer {
  name: "relu5_2"
  type: "ReLU"
  bottom: "conv5_2"
  top: "conv5_2"
}
layer {
  name: "conv5_3"
  type: "Convolution"
  bottom: "conv5_2"
  top: "conv5_3"
  param {
    lr_mult: 1
    decay_mult: 1
  }
  param {
    lr_mult: 2
    decay_mult: 0
  }
  convolution_param {
    num_output: 512
    pad: 1
    kernel_size: 3
  }
}
layer {
  name: "relu5_3"
  type: "ReLU"
  bottom: "conv5_3"
  top: "conv5_3"
}
layer {
  name: "pool5"
  type: "Pooling"
  bottom: "conv5_3"
  top: "pool5"
  pooling_param {
    pool: MAX
    kernel_size: 2
    stride: 2
  }
}
layer {
  name: "fc6"
  type: "InnerProduct"
  bottom: "pool5"
  top: "fc6"
  param {
    lr_mult: 10
    decay_mult: 1
  }
  param {
    lr_mult: 20
    decay_mult: 0
  }
  inner_product_param {
    num_output: 4096
  }
}
layer {
  name: "relu6"
  type: "ReLU"
  bottom: "fc6"
  top: "fc6"
}
layer {
  name: "drop6"
  type: "Dropout"
  bottom: "fc6"
  top: "fc6"
  dropout_param {
    dropout_ratio: 0.5
  }
}
layer {
  name: "fc7"
  type: "InnerProduct"
  bottom: "fc6"
  top: "fc7"
  param {
    lr_mult: 10
    decay_mult: 1
  }
  param {
    lr_mult: 20
    decay_mult: 0
  }
  inner_product_param {
    num_output: 4096
  }
}
layer {
  name: "relu7"
  type: "ReLU"
  bottom: "fc7"
  top: "fc7"
}
layer {
  name: "drop7"
  type: "Dropout"
  bottom: "fc7"
  top: "fc7"
  dropout_param {
    dropout_ratio: 0.5
  }
}
layer {
  name: "fc8-101"
  type: "InnerProduct"
  bottom: "fc7"
  top: "fc8-101"
  param {
    lr_mult: 10
    decay_mult: 1
  }
  param {
    lr_mult: 20
    decay_mult: 0
  }
  inner_product_param {
    num_output: 101
    weight_filler {
      type: "gaussian"
      std: 0.01
    }
    bias_filler {
      type: "constant"
      value: 0
    }
  }
}
layer {
  name: "prob"
  type: "Softmax"
  bottom: "fc8-101"
  top: "prob"
  include {
    phase: TEST
  }
}
layer {
  name: "accuracy_train_top01"
  type: "Accuracy"
  bottom: "fc8-101"
  bottom: "label"
  top: "accuracy_train_top01"
  include {
    phase: TEST
    stage: "test-on-train"
  }
}
layer {
  name: "accuracy_train_top05"
  type: "Accuracy"
  bottom: "fc8-101"
  bottom: "label"
  top: "accuracy_train_top05"
  include {
    phase: TEST
    stage: "test-on-train"
  }
  accuracy_param {
    top_k: 5
  }
}
layer {
  name: "accuracy_train_top10"
  type: "Accuracy"
  bottom: "fc8-101"
  bottom: "label"
  top: "accuracy_train_top10"
  include {
    phase: TEST
    stage: "test-on-train"
  }
  accuracy_param {
    top_k: 10
  }
}
I0712 16:00:21.121842 26563 layer_factory.hpp:77] Creating layer data
I0712 16:00:21.121860 26563 net.cpp:84] Creating Layer data
I0712 16:00:21.121865 26563 net.cpp:380] data -> data
I0712 16:00:21.121876 26563 net.cpp:380] data -> label
I0712 16:00:21.121884 26563 data_transformer.cpp:25] Loading mean file from: /srv/glusterfs/hmahdi/IMDB/models/imagenet_mean.binaryproto
I0712 16:00:21.127782 26563 image_data_layer.cpp:38] Opening file /srv/glusterfs/hmahdi/IMDB/morph_target/morph_matched_validation_set.txt
I0712 16:00:21.399852 26563 image_data_layer.cpp:63] A total of 183960 images.
I0712 16:00:21.432541 26563 image_data_layer.cpp:90] output data size: 5,3,224,224
I0712 16:00:21.451177 26563 net.cpp:122] Setting up data
I0712 16:00:21.451233 26563 net.cpp:129] Top shape: 5 3 224 224 (752640)
I0712 16:00:21.451299 26563 net.cpp:129] Top shape: 5 (5)
I0712 16:00:21.451310 26563 net.cpp:137] Memory required for data: 3010580
I0712 16:00:21.451326 26563 layer_factory.hpp:77] Creating layer label_data_1_split
I0712 16:00:21.451356 26563 net.cpp:84] Creating Layer label_data_1_split
I0712 16:00:21.451369 26563 net.cpp:406] label_data_1_split <- label
I0712 16:00:21.451387 26563 net.cpp:380] label_data_1_split -> label_data_1_split_0
I0712 16:00:21.451414 26563 net.cpp:380] label_data_1_split -> label_data_1_split_1
I0712 16:00:21.451431 26563 net.cpp:380] label_data_1_split -> label_data_1_split_2
I0712 16:00:21.451573 26563 net.cpp:122] Setting up label_data_1_split
I0712 16:00:21.451596 26563 net.cpp:129] Top shape: 5 (5)
I0712 16:00:21.451607 26563 net.cpp:129] Top shape: 5 (5)
I0712 16:00:21.451618 26563 net.cpp:129] Top shape: 5 (5)
I0712 16:00:21.451627 26563 net.cpp:137] Memory required for data: 3010640
I0712 16:00:21.451637 26563 layer_factory.hpp:77] Creating layer conv1_1
I0712 16:00:21.451665 26563 net.cpp:84] Creating Layer conv1_1
I0712 16:00:21.451676 26563 net.cpp:406] conv1_1 <- data
I0712 16:00:21.451692 26563 net.cpp:380] conv1_1 -> conv1_1
I0712 16:00:21.455894 26563 net.cpp:122] Setting up conv1_1
I0712 16:00:21.455927 26563 net.cpp:129] Top shape: 5 64 224 224 (16056320)
I0712 16:00:21.455938 26563 net.cpp:137] Memory required for data: 67235920
I0712 16:00:21.455965 26563 layer_factory.hpp:77] Creating layer relu1_1
I0712 16:00:21.455986 26563 net.cpp:84] Creating Layer relu1_1
I0712 16:00:21.455996 26563 net.cpp:406] relu1_1 <- conv1_1
I0712 16:00:21.456013 26563 net.cpp:367] relu1_1 -> conv1_1 (in-place)
I0712 16:00:21.457520 26563 net.cpp:122] Setting up relu1_1
I0712 16:00:21.457550 26563 net.cpp:129] Top shape: 5 64 224 224 (16056320)
I0712 16:00:21.457559 26563 net.cpp:137] Memory required for data: 131461200
I0712 16:00:21.457571 26563 layer_factory.hpp:77] Creating layer conv1_2
I0712 16:00:21.457594 26563 net.cpp:84] Creating Layer conv1_2
I0712 16:00:21.457607 26563 net.cpp:406] conv1_2 <- conv1_1
I0712 16:00:21.457623 26563 net.cpp:380] conv1_2 -> conv1_2
I0712 16:00:21.464956 26563 net.cpp:122] Setting up conv1_2
I0712 16:00:21.464990 26563 net.cpp:129] Top shape: 5 64 224 224 (16056320)
I0712 16:00:21.465000 26563 net.cpp:137] Memory required for data: 195686480
I0712 16:00:21.465023 26563 layer_factory.hpp:77] Creating layer relu1_2
I0712 16:00:21.465040 26563 net.cpp:84] Creating Layer relu1_2
I0712 16:00:21.465051 26563 net.cpp:406] relu1_2 <- conv1_2
I0712 16:00:21.465065 26563 net.cpp:367] relu1_2 -> conv1_2 (in-place)
I0712 16:00:21.465458 26563 net.cpp:122] Setting up relu1_2
I0712 16:00:21.465482 26563 net.cpp:129] Top shape: 5 64 224 224 (16056320)
I0712 16:00:21.465492 26563 net.cpp:137] Memory required for data: 259911760
I0712 16:00:21.465502 26563 layer_factory.hpp:77] Creating layer pool1
I0712 16:00:21.465518 26563 net.cpp:84] Creating Layer pool1
I0712 16:00:21.465528 26563 net.cpp:406] pool1 <- conv1_2
I0712 16:00:21.465541 26563 net.cpp:380] pool1 -> pool1
I0712 16:00:21.465656 26563 net.cpp:122] Setting up pool1
I0712 16:00:21.465675 26563 net.cpp:129] Top shape: 5 64 112 112 (4014080)
I0712 16:00:21.465684 26563 net.cpp:137] Memory required for data: 275968080
I0712 16:00:21.465693 26563 layer_factory.hpp:77] Creating layer conv2_1
I0712 16:00:21.465718 26563 net.cpp:84] Creating Layer conv2_1
I0712 16:00:21.465728 26563 net.cpp:406] conv2_1 <- pool1
I0712 16:00:21.465747 26563 net.cpp:380] conv2_1 -> conv2_1
I0712 16:00:21.471765 26563 net.cpp:122] Setting up conv2_1
I0712 16:00:21.471799 26563 net.cpp:129] Top shape: 5 128 112 112 (8028160)
I0712 16:00:21.471810 26563 net.cpp:137] Memory required for data: 308080720
I0712 16:00:21.471833 26563 layer_factory.hpp:77] Creating layer relu2_1
I0712 16:00:21.471853 26563 net.cpp:84] Creating Layer relu2_1
I0712 16:00:21.471863 26563 net.cpp:406] relu2_1 <- conv2_1
I0712 16:00:21.471889 26563 net.cpp:367] relu2_1 -> conv2_1 (in-place)
I0712 16:00:21.473327 26563 net.cpp:122] Setting up relu2_1
I0712 16:00:21.473379 26563 net.cpp:129] Top shape: 5 128 112 112 (8028160)
I0712 16:00:21.473389 26563 net.cpp:137] Memory required for data: 340193360
I0712 16:00:21.473399 26563 layer_factory.hpp:77] Creating layer conv2_2
I0712 16:00:21.473419 26563 net.cpp:84] Creating Layer conv2_2
I0712 16:00:21.473429 26563 net.cpp:406] conv2_2 <- conv2_1
I0712 16:00:21.473448 26563 net.cpp:380] conv2_2 -> conv2_2
I0712 16:00:21.477236 26563 net.cpp:122] Setting up conv2_2
I0712 16:00:21.477267 26563 net.cpp:129] Top shape: 5 128 112 112 (8028160)
I0712 16:00:21.477277 26563 net.cpp:137] Memory required for data: 372306000
I0712 16:00:21.477293 26563 layer_factory.hpp:77] Creating layer relu2_2
I0712 16:00:21.477310 26563 net.cpp:84] Creating Layer relu2_2
I0712 16:00:21.477319 26563 net.cpp:406] relu2_2 <- conv2_2
I0712 16:00:21.477332 26563 net.cpp:367] relu2_2 -> conv2_2 (in-place)
I0712 16:00:21.478688 26563 net.cpp:122] Setting up relu2_2
I0712 16:00:21.478714 26563 net.cpp:129] Top shape: 5 128 112 112 (8028160)
I0712 16:00:21.478724 26563 net.cpp:137] Memory required for data: 404418640
I0712 16:00:21.478734 26563 layer_factory.hpp:77] Creating layer pool2
I0712 16:00:21.478751 26563 net.cpp:84] Creating Layer pool2
I0712 16:00:21.478761 26563 net.cpp:406] pool2 <- conv2_2
I0712 16:00:21.478775 26563 net.cpp:380] pool2 -> pool2
I0712 16:00:21.478893 26563 net.cpp:122] Setting up pool2
I0712 16:00:21.478910 26563 net.cpp:129] Top shape: 5 128 56 56 (2007040)
I0712 16:00:21.478919 26563 net.cpp:137] Memory required for data: 412446800
I0712 16:00:21.478927 26563 layer_factory.hpp:77] Creating layer conv3_1
I0712 16:00:21.478948 26563 net.cpp:84] Creating Layer conv3_1
I0712 16:00:21.478958 26563 net.cpp:406] conv3_1 <- pool2
I0712 16:00:21.478971 26563 net.cpp:380] conv3_1 -> conv3_1
I0712 16:00:21.485044 26563 net.cpp:122] Setting up conv3_1
I0712 16:00:21.485070 26563 net.cpp:129] Top shape: 5 256 56 56 (4014080)
I0712 16:00:21.485080 26563 net.cpp:137] Memory required for data: 428503120
I0712 16:00:21.485103 26563 layer_factory.hpp:77] Creating layer relu3_1
I0712 16:00:21.485127 26563 net.cpp:84] Creating Layer relu3_1
I0712 16:00:21.485137 26563 net.cpp:406] relu3_1 <- conv3_1
I0712 16:00:21.485149 26563 net.cpp:367] relu3_1 -> conv3_1 (in-place)
I0712 16:00:21.485504 26563 net.cpp:122] Setting up relu3_1
I0712 16:00:21.485528 26563 net.cpp:129] Top shape: 5 256 56 56 (4014080)
I0712 16:00:21.485538 26563 net.cpp:137] Memory required for data: 444559440
I0712 16:00:21.485546 26563 layer_factory.hpp:77] Creating layer conv3_2
I0712 16:00:21.485563 26563 net.cpp:84] Creating Layer conv3_2
I0712 16:00:21.485572 26563 net.cpp:406] conv3_2 <- conv3_1
I0712 16:00:21.485589 26563 net.cpp:380] conv3_2 -> conv3_2
I0712 16:00:21.492261 26563 net.cpp:122] Setting up conv3_2
I0712 16:00:21.492290 26563 net.cpp:129] Top shape: 5 256 56 56 (4014080)
I0712 16:00:21.492300 26563 net.cpp:137] Memory required for data: 460615760
I0712 16:00:21.492316 26563 layer_factory.hpp:77] Creating layer relu3_2
I0712 16:00:21.492329 26563 net.cpp:84] Creating Layer relu3_2
I0712 16:00:21.492339 26563 net.cpp:406] relu3_2 <- conv3_2
I0712 16:00:21.492352 26563 net.cpp:367] relu3_2 -> conv3_2 (in-place)
I0712 16:00:21.493665 26563 net.cpp:122] Setting up relu3_2
I0712 16:00:21.493690 26563 net.cpp:129] Top shape: 5 256 56 56 (4014080)
I0712 16:00:21.493698 26563 net.cpp:137] Memory required for data: 476672080
I0712 16:00:21.493707 26563 layer_factory.hpp:77] Creating layer conv3_3
I0712 16:00:21.493731 26563 net.cpp:84] Creating Layer conv3_3
I0712 16:00:21.493741 26563 net.cpp:406] conv3_3 <- conv3_2
I0712 16:00:21.493760 26563 net.cpp:380] conv3_3 -> conv3_3
I0712 16:00:21.499600 26563 net.cpp:122] Setting up conv3_3
I0712 16:00:21.499625 26563 net.cpp:129] Top shape: 5 256 56 56 (4014080)
I0712 16:00:21.499634 26563 net.cpp:137] Memory required for data: 492728400
I0712 16:00:21.499653 26563 layer_factory.hpp:77] Creating layer relu3_3
I0712 16:00:21.499675 26563 net.cpp:84] Creating Layer relu3_3
I0712 16:00:21.499683 26563 net.cpp:406] relu3_3 <- conv3_3
I0712 16:00:21.499717 26563 net.cpp:367] relu3_3 -> conv3_3 (in-place)
I0712 16:00:21.500973 26563 net.cpp:122] Setting up relu3_3
I0712 16:00:21.500995 26563 net.cpp:129] Top shape: 5 256 56 56 (4014080)
I0712 16:00:21.501003 26563 net.cpp:137] Memory required for data: 508784720
I0712 16:00:21.501013 26563 layer_factory.hpp:77] Creating layer pool3
I0712 16:00:21.501026 26563 net.cpp:84] Creating Layer pool3
I0712 16:00:21.501034 26563 net.cpp:406] pool3 <- conv3_3
I0712 16:00:21.501049 26563 net.cpp:380] pool3 -> pool3
I0712 16:00:21.501147 26563 net.cpp:122] Setting up pool3
I0712 16:00:21.501163 26563 net.cpp:129] Top shape: 5 256 28 28 (1003520)
I0712 16:00:21.501170 26563 net.cpp:137] Memory required for data: 512798800
I0712 16:00:21.501178 26563 layer_factory.hpp:77] Creating layer conv4_1
I0712 16:00:21.501199 26563 net.cpp:84] Creating Layer conv4_1
I0712 16:00:21.501209 26563 net.cpp:406] conv4_1 <- pool3
I0712 16:00:21.501221 26563 net.cpp:380] conv4_1 -> conv4_1
I0712 16:00:21.509469 26563 net.cpp:122] Setting up conv4_1
I0712 16:00:21.509496 26563 net.cpp:129] Top shape: 5 512 28 28 (2007040)
I0712 16:00:21.509505 26563 net.cpp:137] Memory required for data: 520826960
I0712 16:00:21.509519 26563 layer_factory.hpp:77] Creating layer relu4_1
I0712 16:00:21.509533 26563 net.cpp:84] Creating Layer relu4_1
I0712 16:00:21.509541 26563 net.cpp:406] relu4_1 <- conv4_1
I0712 16:00:21.509555 26563 net.cpp:367] relu4_1 -> conv4_1 (in-place)
I0712 16:00:21.509871 26563 net.cpp:122] Setting up relu4_1
I0712 16:00:21.509891 26563 net.cpp:129] Top shape: 5 512 28 28 (2007040)
I0712 16:00:21.509898 26563 net.cpp:137] Memory required for data: 528855120
I0712 16:00:21.509907 26563 layer_factory.hpp:77] Creating layer conv4_2
I0712 16:00:21.509924 26563 net.cpp:84] Creating Layer conv4_2
I0712 16:00:21.509933 26563 net.cpp:406] conv4_2 <- conv4_1
I0712 16:00:21.509945 26563 net.cpp:380] conv4_2 -> conv4_2
I0712 16:00:21.522506 26563 net.cpp:122] Setting up conv4_2
I0712 16:00:21.522541 26563 net.cpp:129] Top shape: 5 512 28 28 (2007040)
I0712 16:00:21.522549 26563 net.cpp:137] Memory required for data: 536883280
I0712 16:00:21.522570 26563 layer_factory.hpp:77] Creating layer relu4_2
I0712 16:00:21.522590 26563 net.cpp:84] Creating Layer relu4_2
I0712 16:00:21.522600 26563 net.cpp:406] relu4_2 <- conv4_2
I0712 16:00:21.522621 26563 net.cpp:367] relu4_2 -> conv4_2 (in-place)
I0712 16:00:21.524544 26563 net.cpp:122] Setting up relu4_2
I0712 16:00:21.524565 26563 net.cpp:129] Top shape: 5 512 28 28 (2007040)
I0712 16:00:21.524574 26563 net.cpp:137] Memory required for data: 544911440
I0712 16:00:21.524581 26563 layer_factory.hpp:77] Creating layer conv4_3
I0712 16:00:21.524605 26563 net.cpp:84] Creating Layer conv4_3
I0712 16:00:21.524615 26563 net.cpp:406] conv4_3 <- conv4_2
I0712 16:00:21.524629 26563 net.cpp:380] conv4_3 -> conv4_3
I0712 16:00:21.534607 26563 net.cpp:122] Setting up conv4_3
I0712 16:00:21.534647 26563 net.cpp:129] Top shape: 5 512 28 28 (2007040)
I0712 16:00:21.534654 26563 net.cpp:137] Memory required for data: 552939600
I0712 16:00:21.534670 26563 layer_factory.hpp:77] Creating layer relu4_3
I0712 16:00:21.534685 26563 net.cpp:84] Creating Layer relu4_3
I0712 16:00:21.534694 26563 net.cpp:406] relu4_3 <- conv4_3
I0712 16:00:21.534706 26563 net.cpp:367] relu4_3 -> conv4_3 (in-place)
I0712 16:00:21.535776 26563 net.cpp:122] Setting up relu4_3
I0712 16:00:21.535796 26563 net.cpp:129] Top shape: 5 512 28 28 (2007040)
I0712 16:00:21.535804 26563 net.cpp:137] Memory required for data: 560967760
I0712 16:00:21.535811 26563 layer_factory.hpp:77] Creating layer pool4
I0712 16:00:21.535823 26563 net.cpp:84] Creating Layer pool4
I0712 16:00:21.535831 26563 net.cpp:406] pool4 <- conv4_3
I0712 16:00:21.535842 26563 net.cpp:380] pool4 -> pool4
I0712 16:00:21.535931 26563 net.cpp:122] Setting up pool4
I0712 16:00:21.535946 26563 net.cpp:129] Top shape: 5 512 14 14 (501760)
I0712 16:00:21.535959 26563 net.cpp:137] Memory required for data: 562974800
I0712 16:00:21.535966 26563 layer_factory.hpp:77] Creating layer conv5_1
I0712 16:00:21.536021 26563 net.cpp:84] Creating Layer conv5_1
I0712 16:00:21.536031 26563 net.cpp:406] conv5_1 <- pool4
I0712 16:00:21.536043 26563 net.cpp:380] conv5_1 -> conv5_1
I0712 16:00:21.547307 26563 net.cpp:122] Setting up conv5_1
I0712 16:00:21.547341 26563 net.cpp:129] Top shape: 5 512 14 14 (501760)
I0712 16:00:21.547348 26563 net.cpp:137] Memory required for data: 564981840
I0712 16:00:21.547363 26563 layer_factory.hpp:77] Creating layer relu5_1
I0712 16:00:21.547379 26563 net.cpp:84] Creating Layer relu5_1
I0712 16:00:21.547386 26563 net.cpp:406] relu5_1 <- conv5_1
I0712 16:00:21.547400 26563 net.cpp:367] relu5_1 -> conv5_1 (in-place)
I0712 16:00:21.547672 26563 net.cpp:122] Setting up relu5_1
I0712 16:00:21.547688 26563 net.cpp:129] Top shape: 5 512 14 14 (501760)
I0712 16:00:21.547694 26563 net.cpp:137] Memory required for data: 566988880
I0712 16:00:21.547701 26563 layer_factory.hpp:77] Creating layer conv5_2
I0712 16:00:21.547719 26563 net.cpp:84] Creating Layer conv5_2
I0712 16:00:21.547727 26563 net.cpp:406] conv5_2 <- conv5_1
I0712 16:00:21.547740 26563 net.cpp:380] conv5_2 -> conv5_2
I0712 16:00:21.557880 26563 net.cpp:122] Setting up conv5_2
I0712 16:00:21.557912 26563 net.cpp:129] Top shape: 5 512 14 14 (501760)
I0712 16:00:21.557919 26563 net.cpp:137] Memory required for data: 568995920
I0712 16:00:21.557931 26563 layer_factory.hpp:77] Creating layer relu5_2
I0712 16:00:21.557947 26563 net.cpp:84] Creating Layer relu5_2
I0712 16:00:21.557956 26563 net.cpp:406] relu5_2 <- conv5_2
I0712 16:00:21.557967 26563 net.cpp:367] relu5_2 -> conv5_2 (in-place)
I0712 16:00:21.558955 26563 net.cpp:122] Setting up relu5_2
I0712 16:00:21.558974 26563 net.cpp:129] Top shape: 5 512 14 14 (501760)
I0712 16:00:21.558979 26563 net.cpp:137] Memory required for data: 571002960
I0712 16:00:21.558986 26563 layer_factory.hpp:77] Creating layer conv5_3
I0712 16:00:21.559003 26563 net.cpp:84] Creating Layer conv5_3
I0712 16:00:21.559010 26563 net.cpp:406] conv5_3 <- conv5_2
I0712 16:00:21.559025 26563 net.cpp:380] conv5_3 -> conv5_3
I0712 16:00:21.568346 26563 net.cpp:122] Setting up conv5_3
I0712 16:00:21.568382 26563 net.cpp:129] Top shape: 5 512 14 14 (501760)
I0712 16:00:21.568389 26563 net.cpp:137] Memory required for data: 573010000
I0712 16:00:21.568403 26563 layer_factory.hpp:77] Creating layer relu5_3
I0712 16:00:21.568416 26563 net.cpp:84] Creating Layer relu5_3
I0712 16:00:21.568425 26563 net.cpp:406] relu5_3 <- conv5_3
I0712 16:00:21.568436 26563 net.cpp:367] relu5_3 -> conv5_3 (in-place)
I0712 16:00:21.569429 26563 net.cpp:122] Setting up relu5_3
I0712 16:00:21.569455 26563 net.cpp:129] Top shape: 5 512 14 14 (501760)
I0712 16:00:21.569461 26563 net.cpp:137] Memory required for data: 575017040
I0712 16:00:21.569468 26563 layer_factory.hpp:77] Creating layer pool5
I0712 16:00:21.569486 26563 net.cpp:84] Creating Layer pool5
I0712 16:00:21.569494 26563 net.cpp:406] pool5 <- conv5_3
I0712 16:00:21.569505 26563 net.cpp:380] pool5 -> pool5
I0712 16:00:21.569588 26563 net.cpp:122] Setting up pool5
I0712 16:00:21.569602 26563 net.cpp:129] Top shape: 5 512 7 7 (125440)
I0712 16:00:21.569607 26563 net.cpp:137] Memory required for data: 575518800
I0712 16:00:21.569612 26563 layer_factory.hpp:77] Creating layer fc6
I0712 16:00:21.569628 26563 net.cpp:84] Creating Layer fc6
I0712 16:00:21.569633 26563 net.cpp:406] fc6 <- pool5
I0712 16:00:21.569644 26563 net.cpp:380] fc6 -> fc6
I0712 16:00:21.810971 26563 net.cpp:122] Setting up fc6
I0712 16:00:21.811017 26563 net.cpp:129] Top shape: 5 4096 (20480)
I0712 16:00:21.811022 26563 net.cpp:137] Memory required for data: 575600720
I0712 16:00:21.811033 26563 layer_factory.hpp:77] Creating layer relu6
I0712 16:00:21.811050 26563 net.cpp:84] Creating Layer relu6
I0712 16:00:21.811056 26563 net.cpp:406] relu6 <- fc6
I0712 16:00:21.811070 26563 net.cpp:367] relu6 -> fc6 (in-place)
I0712 16:00:21.811976 26563 net.cpp:122] Setting up relu6
I0712 16:00:21.811995 26563 net.cpp:129] Top shape: 5 4096 (20480)
I0712 16:00:21.811998 26563 net.cpp:137] Memory required for data: 575682640
I0712 16:00:21.812032 26563 layer_factory.hpp:77] Creating layer drop6
I0712 16:00:21.812042 26563 net.cpp:84] Creating Layer drop6
I0712 16:00:21.812047 26563 net.cpp:406] drop6 <- fc6
I0712 16:00:21.812055 26563 net.cpp:367] drop6 -> fc6 (in-place)
I0712 16:00:21.812093 26563 net.cpp:122] Setting up drop6
I0712 16:00:21.812101 26563 net.cpp:129] Top shape: 5 4096 (20480)
I0712 16:00:21.812105 26563 net.cpp:137] Memory required for data: 575764560
I0712 16:00:21.812109 26563 layer_factory.hpp:77] Creating layer fc7
I0712 16:00:21.812119 26563 net.cpp:84] Creating Layer fc7
I0712 16:00:21.812124 26563 net.cpp:406] fc7 <- fc6
I0712 16:00:21.812130 26563 net.cpp:380] fc7 -> fc7
I0712 16:00:21.850492 26563 net.cpp:122] Setting up fc7
I0712 16:00:21.850528 26563 net.cpp:129] Top shape: 5 4096 (20480)
I0712 16:00:21.850531 26563 net.cpp:137] Memory required for data: 575846480
I0712 16:00:21.850541 26563 layer_factory.hpp:77] Creating layer relu7
I0712 16:00:21.850553 26563 net.cpp:84] Creating Layer relu7
I0712 16:00:21.850558 26563 net.cpp:406] relu7 <- fc7
I0712 16:00:21.850567 26563 net.cpp:367] relu7 -> fc7 (in-place)
I0712 16:00:21.850786 26563 net.cpp:122] Setting up relu7
I0712 16:00:21.850798 26563 net.cpp:129] Top shape: 5 4096 (20480)
I0712 16:00:21.850802 26563 net.cpp:137] Memory required for data: 575928400
I0712 16:00:21.850807 26563 layer_factory.hpp:77] Creating layer drop7
I0712 16:00:21.850816 26563 net.cpp:84] Creating Layer drop7
I0712 16:00:21.850819 26563 net.cpp:406] drop7 <- fc7
I0712 16:00:21.850826 26563 net.cpp:367] drop7 -> fc7 (in-place)
I0712 16:00:21.850864 26563 net.cpp:122] Setting up drop7
I0712 16:00:21.850872 26563 net.cpp:129] Top shape: 5 4096 (20480)
I0712 16:00:21.850877 26563 net.cpp:137] Memory required for data: 576010320
I0712 16:00:21.850880 26563 layer_factory.hpp:77] Creating layer fc8-101
I0712 16:00:21.850891 26563 net.cpp:84] Creating Layer fc8-101
I0712 16:00:21.850895 26563 net.cpp:406] fc8-101 <- fc7
I0712 16:00:21.850903 26563 net.cpp:380] fc8-101 -> fc8-101
I0712 16:00:21.855864 26563 net.cpp:122] Setting up fc8-101
I0712 16:00:21.855875 26563 net.cpp:129] Top shape: 5 101 (505)
I0712 16:00:21.855886 26563 net.cpp:137] Memory required for data: 576012340
I0712 16:00:21.855895 26563 layer_factory.hpp:77] Creating layer fc8-101_fc8-101_0_split
I0712 16:00:21.855907 26563 net.cpp:84] Creating Layer fc8-101_fc8-101_0_split
I0712 16:00:21.855912 26563 net.cpp:406] fc8-101_fc8-101_0_split <- fc8-101
I0712 16:00:21.855919 26563 net.cpp:380] fc8-101_fc8-101_0_split -> fc8-101_fc8-101_0_split_0
I0712 16:00:21.855929 26563 net.cpp:380] fc8-101_fc8-101_0_split -> fc8-101_fc8-101_0_split_1
I0712 16:00:21.855937 26563 net.cpp:380] fc8-101_fc8-101_0_split -> fc8-101_fc8-101_0_split_2
I0712 16:00:21.855944 26563 net.cpp:380] fc8-101_fc8-101_0_split -> fc8-101_fc8-101_0_split_3
I0712 16:00:21.856017 26563 net.cpp:122] Setting up fc8-101_fc8-101_0_split
I0712 16:00:21.856026 26563 net.cpp:129] Top shape: 5 101 (505)
I0712 16:00:21.856031 26563 net.cpp:129] Top shape: 5 101 (505)
I0712 16:00:21.856035 26563 net.cpp:129] Top shape: 5 101 (505)
I0712 16:00:21.856040 26563 net.cpp:129] Top shape: 5 101 (505)
I0712 16:00:21.856043 26563 net.cpp:137] Memory required for data: 576020420
I0712 16:00:21.856047 26563 layer_factory.hpp:77] Creating layer prob
I0712 16:00:21.856055 26563 net.cpp:84] Creating Layer prob
I0712 16:00:21.856060 26563 net.cpp:406] prob <- fc8-101_fc8-101_0_split_0
I0712 16:00:21.856065 26563 net.cpp:380] prob -> prob
I0712 16:00:21.857112 26563 net.cpp:122] Setting up prob
I0712 16:00:21.857125 26563 net.cpp:129] Top shape: 5 101 (505)
I0712 16:00:21.857128 26563 net.cpp:137] Memory required for data: 576022440
I0712 16:00:21.857132 26563 layer_factory.hpp:77] Creating layer accuracy_train_top01
I0712 16:00:21.857141 26563 net.cpp:84] Creating Layer accuracy_train_top01
I0712 16:00:21.857146 26563 net.cpp:406] accuracy_train_top01 <- fc8-101_fc8-101_0_split_1
I0712 16:00:21.857158 26563 net.cpp:406] accuracy_train_top01 <- label_data_1_split_0
…
